snapproject/Public/Example Assets/Car Detection/car_detection_model.onnx (onnx, 461942 bytes, 207 tensors)

backbone.0.0.weight f4 [16, 3, 3, 3]
0	0x00002e69	1.6649e-41
1	0x0000212c	1.19e-41
2	0x800009ad	-3.471e-42
3	0x0000470c	2.5487e-41
4	0x8000a3c2	-5.8745e-41
5	0x00002a4e	1.5176e-41
6	0x00004c7d	2.7439e-41
7	0x000050fc	2.9052e-41
8	0x80003be1	-2.148e-41
9	0x0000428f	2.3877e-41
10	0x000029b4	1.496e-41
11	0x00006736	3.7025e-41
12	0x000067e1	3.7265e-41
13	0x00003a4a	2.091e-41
14	0x80001b06	-9.694e-42
15	0x80006753	-3.7066e-41
16	0x80000767	-2.655e-42
17	0x00002006	1.1488e-41
18	0x80001ae6	-9.65e-42
19	0x0000519e	2.9279e-41
20	0x80009cd9	-5.6266e-41
21	0x80005848	-3.167e-41
22	0x00003bef	2.15e-41
23	0x8000863c	-4.8154e-41
24	0x0000193b	9.051e-42
25	0x0000305b	1.7347e-41
26	0x00003385	1.8482e-41
27	0x3e081ddc	0.1329264
28	0x3d219456	0.039448105
29	0xbe1468f0	-0.14493155
30	0x3ed9bc3d	0.42526427
31	0x3edf2cb4	0.43588793
32	0x3da51fa5	0.08062676
33	0xbe2d3884	-0.1691609
34	0xbd4cb49d	-0.049976934
35	0xbd5a3a15	-0.053278048
36	0x3e3cda73	0.18442707
37	0x3e038069	0.12841953
38	0xbdacb614	-0.08433166
39	0x3e684ff7	0.22686754
40	0x3ec70cf0	0.38877058
41	0xbd3a4fdf	-0.045486327
42	0xbf00e233	-0.5034515
43	0xbf08339d	-0.53203756
44	0xbe882ed8	-0.2659824
45	0x3dba0569	0.09083063
46	0x3d672182	0.05642844
47	0xbde63617	-0.112407856
48	0x3e79af7a	0.24383345
49	0x3e0edd3c	0.13951582
50	0xbce5843f	-0.028017161
51	0xbd9dbf17	-0.07702463
52	0x3cb40ee1	0.021979751
53	0xbda46775	-0.08027545
54	0xbd60a6fa	-0.05484674
55	0x3dd5344d	0.10410366
56	0xbd23f224	-0.040025845
57	0xbf099dfa	-0.5375668
58	0x3f36863f	0.71298593
59	0xbe37502f	-0.17901681
60	0xbf3f01ce	-0.7461213
61	0x3f5a18ba	0.8519398
62	0xbe324b9e	-0.17411658
63	0xbd907d61	-0.07055164
64	0x3e3d273f	0.18472002
65	0xbd9b4b27	-0.075826935
66	0xbf6784ac	-0.90436816
67	0x3fa6a8fa	1.3020318
68	0xbeb72f9e	-0.35778517
69	0xbf85d9f2	-1.0457137
70	0x3fb4086d	1.4065071
71	0xbe9ac84c	-0.3023094
72	0xbc7b6a5f	-0.015345185
73	0xbccac650	-0.024752766
74	0x39a695d3	0.00031773615
75	0xbecacaad	-0.39607754
76	0x3ecd48fd	0.40094748
77	0xbcf4200e	-0.029800441
78	0xbec630b0	-0.3870902
79	0x3ee054f4	0.43814814
80	0xbc736e05	-0.014857774
81	0xbd0def1b	-0.034651857
82	0x3d13dcd2	0.036099263
83	0x3d92be79	0.07165236
84	0x3d47bbfc	0.04876326
85	0x3ea3f13a	0.3201998
86	0xbe9e53f7	-0.30923435
87	0x3c097f02	0.008392097
88	0x3ec7dd0d	0.39035836
89	0xbe8850e0	-0.26624203
90	0xbcbda92b	-0.023151955
91	0xbc7c8c40	-0.015414298
92	0x3ceb50f2	0.028725121
93	0xbce969f1	-0.0284929
94	0x3ef9f9ce	0.48823398
95	0xbf121491	-0.5706263
96	0xbdf2f4db	-0.11863109
97	0x3f07defb	0.53074616
98	0xbefce855	-0.49396005
99	0x3d2085f3	0.039190244
100	0x3d7cee99	0.061750982
101	0xbd105409	-0.035236392
102	0x3d834d9d	0.06411288
103	0x3e539c69	0.20665134
104	0xbea09809	-0.31365994
105	0x3cc2f19f	0.023796855
106	0x3e3f3a0e	0.1867449
107	0xbe6ec182	-0.23316005
108	0x3d94f3e8	0.07273084
109	0xbd3d7ddc	-0.046262607
110	0xbd887080	-0.06662083
111	0x3dafc308	0.08582121
112	0xbe39b241	-0.18134405
113	0xbe994e19	-0.29942396
114	0x3d93c7d0	0.072158456
115	0xbe0d8302	-0.13819507
116	0xbed2a02b	-0.41137823
117	0x3c4fe3a2	0.012688549
118	0x3cc176ca	0.023616213
119	0x3cfe6a9f	0.0310567
120	0x3e208e8b	0.15679376
121	0xbae313c1	-0.0017324613
122	0xbe033463	-0.12812953
123	0x3e786ece	0.24261019
124	0x3d1f7bb0	0.038936317
125	0xbe761c39	-0.24034204
126	0x3da874a0	0.082253695
127	0xbd72bc21	-0.059261445
128	0xbda68842	-0.08131458
129	0x3a3656f2	0.0006955705
130	0xbe4ca679	-0.1998538
131	0xbe90d789	-0.2828944
132	0x3cc408ce	0.02392998
133	0xbdd03973	-0.101672076
134	0xbe8739fe	-0.26411432
135	0x3e5558de	0.20834681
136	0x3e87c323	0.26516065
137	0xbc07f428	-0.0082979575
138	0x3df10e13	0.117702626
139	0x3f0102b9	0.5039478
140	0x3e8beb14	0.27327788
141	0xbe317839	-0.17331018
142	0x3ec87ee9	0.39159325
143	0x3ee2bce2	0.4428473
144	0xbdc23a3c	-0.094837636
145	0xbe13af9a	-0.14422455
146	0xbe61d6f3	-0.22054653
147	0x3d774abc	0.060374007
148	0x3dd43b13	0.1036283
149	0x3d58149f	0.05275404
150	0x3da5bc64	0.08092573
151	0x3e3d458e	0.18483564
152	0x3e59a10e	0.21252844
153	0xbdd67c7b	-0.104729615
154	0xbd76b966	-0.060235403
155	0x3e37f927	0.17966138
156	0xbe2fe96a	-0.17178884
157	0xbf17602a	-0.5913111
158	0xbeb4d6b6	-0.3532006
159	0x3d7504e0	0.059819102
160	0xbf1390e2	-0.5764295
161	0xbf2f27f8	-0.6842036
162	0x3d645e92	0.05575425
163	0xbd5e781f	-0.054313775
164	0x3d73522e	0.059404545
165	0x3eaa5a1b	0.3327187
166	0xbd2ba8f8	-0.041909188
167	0xbe4dc573	-0.20094852
168	0x3e2af6de	0.16695735
169	0xbe13deb1	-0.14440419
170	0xbe4ca8fe	-0.1998634
171	0x3e4b2c3b	0.19841091
172	0x3d26142d	0.040546585
173	0x3e4c680c	0.19961566
174	0x3f5ad8de	0.85487163
175	0xbd290ee2	-0.04127396
176	0xbe8c1366	-0.2735855
177	0x3ef1485d	0.4712552
178	0xbd3709f5	-0.04468723
179	0xbc93ef73	-0.018058514
180	0xbe183cdc	-0.14866966
181	0xbe3c0473	-0.18361072
182	0xbd95bca1	-0.07311369
183	0x3c1fb418	0.009747528
184	0xbd3694d2	-0.04457552
185	0xbdc96509	-0.09833724
186	0x3e31caaa	0.17362466
187	0xbcf703ef	-0.030153243
188	0xbd60ce82	-0.05488444
189	0x3c2aca95	0.010424276
190	0xbcbaedf4	-0.022818543
191	0xbd07a8ff	-0.03312015
192	0x3c3c0f8e	0.011478318
193	0x3e377716	0.17916521
194	0x3ecb4840	0.3970356
195	0x3d27d947	0.040978696
196	0x3e3bb18a	0.18329445
197	0x3edb6468	0.4285004
198	0x3e0c25e2	0.13686326
199	0x3d1c8cf5	0.038220365
200	0xbd842ee5	-0.06454257
201	0x3cfa04a7	0.030519797
202	0x3dd87e5e	0.10570978
203	0x3e84317e	0.2581901
204	0xbdefc4ee	-0.11707483
205	0xbd6a03fd	-0.05713271
206	0x3e211a6c	0.15732735
207	0xbdc4bc2d	-0.09606204
208	0xbcdcca01	-0.026951792
209	0x3d85d91c	0.06535551
210	0xbdac10db	-0.084016524
211	0x3d3794a0	0.044819474
212	0x3e8a2ce1	0.26987365
213	0xbd3fc5d6	-0.04681953
214	0x3d709084	0.05873157
215	0x3e8a9664	0.27067864
216	0xbcb2e865	-0.02183933
217	0x3ce6d7e5	0.028179118
218	0xbe1e0736	-0.15432438
219	0xbe196ac2	-0.14982131
220	0x3f306c2b	0.6891505
221	0xbf076279	-0.5288463
222	0x3d33af20	0.043868184
223	0x3f3ad481	0.72980505
224	0xbf24dab9	-0.64396244
225	0xbdbd1ec8	-0.09234387
226	0x3e178737	0.14797674
227	0xbe74d5a1	-0.23909618
228	0xbdeba975	-0.11506931
229	0x3f87c593	1.060717
230	0xbf654148	-0.89552736
231	0xbc994a4a	-0.018712182
232	0x3f8135ad	1.0094506
233	0xbf667018	-0.9001479
234	0xbc865786	-0.016399156
235	0xbd3027a3	-0.04300655
236	0xbda13508	-0.07871443
237	0xbd85dfe1	-0.06536842
238	0x3ede9424	0.43472397
239	0xbeb78d9f	-0.35850236
240	0x3d8b2f78	0.06796163
241	0x3ee550df	0.44788262
242	0xbeb7e450	-0.35916376
243	0x80009115	-5.2046e-41
244	0x0000709f	4.0401e-41
245	0x80006f2c	-3.9881e-41
246	0x00005537	3.057e-41
247	0x00009c70	5.6119e-41
248	0x00004586	2.494e-41
249	0x00006218	3.519e-41
250	0x8000583d	-3.1654e-41
251	0x8000572a	-3.1269e-41
252	0x00005548	3.0593e-41
253	0x000007d2	2.805e-42
254	0x8000816e	-4.643e-41
255	0x80004124	-2.3368e-41

backbone.0.1.bias f4 [16]
0	0x00006e98	3.9674e-41
1	0x3f057703	0.5213472
2	0x3e936329	0.2878659
3	0x3e1440f9	0.1447791
4	0x3f6bb33e	0.92070377
5	0x3f1fc5a8	0.62410975
6	0x3ebb9600	0.36637878
7	0x3f013013	0.5046398
8	0x3eca0ae2	0.39461428
9	0x80001a21	-9.373e-42
10	0x3d40180e	0.04689794
11	0x3f695b7d	0.91155225
12	0x3ee4982e	0.44647354
13	0xbeb079d4	-0.34467947
14	0x8000340c	-1.8671e-41
15	0x8000242c	-1.2976e-41

backbone.0.1.running_mean f4 [16]
0	0x006211e3	9.006295e-39
1	0x42336729	44.850742
2	0x413e0256	11.87557
3	0x40b36050	5.605507
4	0xc33262d1	-178.386
5	0xc19f69cd	-19.92666
6	0x42ba13e4	93.03885
7	0x4362754f	226.45824
8	0xbf90563e	-1.1276319
9	0x80a3e57a	-1.5051507e-38
10	0x411845be	9.517027
11	0x43434880	195.2832
12	0xc2672bd5	-57.792805
13	0x42c418c4	98.04837
14	0x809d3157	-1.4435873e-38
15	0x012b5e6e	3.147549e-38

backbone.0.1.running_var f4 [16]
0	0x00000004	6e-45
1	0x45724e0c	3876.878
2	0x46783927	15886.288
3	0x4535eaa1	2910.6643
4	0x465161f6	13400.49
5	0x45ed3934	7591.1504
6	0x45e07398	7182.449
7	0x46a05ca0	20526.312
8	0x46248711	10529.767
9	0x00000004	6e-45
10	0x4503de8b	2109.909
11	0x466fb532	15341.299
12	0x45a711c5	5346.221
13	0x4592b116	4694.1357
14	0x00000004	6e-45
15	0x00000004	6e-45

backbone.0.1.weight f4 [16]
0	0x0000ab1e	6.1385e-41
1	0x3e0b2b9d	0.13590856
2	0x3e72e605	0.23720558
3	0x3eb6a0ef	0.35669658
4	0x3ddd0e2d	0.107937194
5	0x3e207afb	0.15671913
6	0x3e2e4772	0.17019442
7	0x3e8eaaa6	0.2786457
8	0x3e46c6f4	0.19411832
9	0x800060c6	-3.4716e-41
10	0x3e4f9ddd	0.20275064
11	0x3db2dd34	0.087335974
12	0x3e4a4d6a	0.19756094
13	0x3e942f44	0.2894231
14	0x80006356	-3.5635e-41
15	0x80005235	-2.949e-41

backbone.1.conv.0.0.weight f4 [16, 1, 3, 3]
0	0x800055a3	-3.072e-41
1	0x000019dc	9.277e-42
2	0x8000892d	-4.921e-41
3	0x80000788	-2.702e-42
4	0x800022bf	-1.2465e-41
5	0x000047f0	2.5806e-41
6	0x80008a91	-4.9708e-41
7	0x00005589	3.0684e-41
8	0x000060d7	3.474e-41
9	0xbc4c378e	-0.012464417
10	0xbddced2f	-0.10787427
11	0x3d2b9b52	0.041896172
12	0xbc8219e4	-0.015881486
13	0x3e0c37d5	0.13693173
14	0x3f53d476	0.82746065
15	0x3d08292d	0.033242393
16	0xbcdd4242	-0.027009133
17	0xbf3d127e	-0.7385634
18	0x3a2e7775	0.0006655374
19	0xbc526aa0	-0.012842804
20	0xbcc2c1b6	-0.02377401
21	0xbba0639f	-0.0048946883
22	0x39f2961d	0.0004626968
23	0x3f7369ef	0.95083517
24	0x3c2dc859	0.010606849
25	0xbbd9d5e8	-0.006647814
26	0x3d2f879b	0.042853933
27	0xbd619256	-0.055071197
28	0xbd41e869	-0.047340784
29	0xbd8b73f5	-0.068092264
30	0xbdc97a39	-0.09837765
31	0x3f4eea9e	0.8082675
32	0xbe8375ae	-0.2567572
33	0xbdcc34a0	-0.09970975
34	0x3c9d851e	0.019228514
35	0xbd77fe66	-0.060545348
36	0x3f00c240	0.502964
37	0x3fef2d9b	1.8685793
38	0x3ee6f8b4	0.4511162
39	0x3e4f1d2f	0.20225976
40	0x3ed9a238	0.42506576
41	0x3e8137f7	0.2523801
42	0xbf502f73	-0.813224
43	0xc007d2c0	-2.1222382
44	0xbf2f2afe	-0.68424976
45	0xbe777f63	-0.24169688
46	0x3d2f5125	0.042801995
47	0xbd5026d7	-0.05081829
48	0x3c60db53	0.013724166
49	0x3ed3b2e5	0.41347423
50	0xbfb53915	-1.4158045
51	0x3d3fc309	0.04681686
52	0x3fba036c	1.4532294
53	0x3f07dacf	0.5306825
54	0x3d511803	0.05104829
55	0x3e2b8643	0.16750436
56	0xbded1acd	-0.115773775
57	0x3c73b36a	0.014874319
58	0xbdda77bb	-0.10667368
59	0xbf8127e8	-1.0090303
60	0x3ce2df3f	0.027694343
61	0xbdd5f109	-0.104463644
62	0x3f4171ac	0.75564075
63	0xbee0b621	-0.43888953
64	0xbe81bfb9	-0.25341585
65	0x3f2edd7c	0.6830671
66	0xc01519b2	-2.3296933
67	0xbea3fe7b	-0.3203009
68	0x4027368c	2.6127043
69	0xbedc7402	-0.43057257
70	0xbe064996	-0.13114008
71	0x3f1e4800	0.61828613
72	0xbbc95b6f	-0.006144933
73	0x3d4d0ea6	0.050062798
74	0xbced5395	-0.02897052
75	0x3b8c38e2	0.004279242
76	0xbf7de2c9	-0.9917417
77	0x3d957d4d	0.0729929
78	0x3c4ef66f	0.012631997
79	0x3c8f0800	0.01745987
80	0x3d03125a	0.031999923
81	0x00006b10	3.8407e-41
82	0x8000692c	-3.7729e-41
83	0x80003c1c	-2.1563e-41
84	0x000032e1	1.8252e-41
85	0x00000ec3	5.296e-42
86	0x000089a7	4.938e-41
87	0x00000497	1.647e-42
88	0x8000349c	-1.8873e-41
89	0x00009909	5.4899e-41
90	0x3d6e8e6a	0.058241285
91	0xbe629ab9	-0.22129335
92	0xbf2c36c0	-0.6727104
93	0xbdd29fd3	-0.1028439
94	0x3e20bf44	0.15697962
95	0x3e800fe7	0.25012133
96	0xbdb086a5	-0.086194314
97	0x3e1f168c	0.15535945
98	0x3e9ad808	0.30242944
99	0x3debf495	0.1152126
100	0x3fccf5e5	1.6012541
101	0x3f6ddef8	0.9291835
102	0x3d31e9e1	0.043435935
103	0x3d50b7ba	0.050956465
104	0xbe2e6b64	-0.17033154
105	0xbe850e3b	-0.2598742
106	0xbfc8c548	-1.5685205
107	0xbf782d87	-0.9694447
108	0x3c06bd8b	0.0082239015
109	0x3d492fa6	0.049117707
110	0xbd0a459a	-0.033757783
111	0x3b7c84bb	0.0038531262
112	0x3a30589a	0.000672707
113	0xbf4f9d6d	-0.8109959
114	0x3c1e5a30	0.009665057
115	0xbd2a63df	-0.04159915
116	0x3f2a65ad	0.66561395
117	0xbd43e59e	-0.047826402
118	0xbc85dc22	-0.016340319
119	0xbe43779e	-0.19088599
120	0x3b8bee2c	0.0042703357
121	0x3c212a49	0.009836742
122	0xbe8f9b81	-0.28048328
123	0x3dc82239	0.097721525
124	0x3dcd4471	0.1002282
125	0x3f1f0896	0.62122476
126	0x00006f1c	3.9859e-41
127	0x00008d21	5.0628e-41
128	0x00001308	6.827e-42
129	0x8000a125	-5.7808e-41
130	0x800030e7	-1.7543e-41
131	0x00005ce3	3.3321e-41
132	0x00002e48	1.6603e-41
133	0x0000342c	1.8716e-41
134	0x00005eca	3.4004e-41
135	0x8000652a	-3.6291e-41
136	0x80005b4b	-3.275e-41
137	0x8000306c	-1.737e-41
138	0x80000de3	-4.982e-42
139	0x00004903	2.6192e-41
140	0x000045b7	2.5009e-41
141	0x80001f6f	-1.1276e-41
142	0x80000d2a	-4.722e-42
143	0x80006168	-3.4943e-41

backbone.1.conv.0.1.bias f4 [16]
0	0x80006a22	-3.8073e-41
1	0x3f2f3f1b	0.68455666
2	0x3f888b31	1.0667478
3	0x3e6b7609	0.22994246
4	0x3e49f016	0.19720492
5	0x3fa5ce1f	1.2953528
6	0x3f5c0519	0.8594528
7	0x3f047158	0.5173545
8	0x3e9a1508	0.3009417
9	0x80000947	-3.328e-42
10	0x3f1628e3	0.5865614
11	0x3daee05b	0.08538886
12	0x3f2c1580	0.67220306
13	0xbe5b5306	-0.2141839
14	0x002f4688	4.34157e-39
15	0x800069d2	-3.7961e-41

backbone.1.conv.0.1.running_mean f4 [16]
0	0x00000004	6e-45
1	0x3d97490e	0.07386981
2	0x3e8ad121	0.27112678
3	0x3cfb8f73	0.03070805
4	0x3dab6e68	0.08370668
5	0x3efec0f7	0.49756595
6	0xbdf5f7e6	-0.120101735
7	0xbade933a	-0.0016981133
8	0xbeaca048	-0.33716035
9	0x80000004	-6e-45
10	0xbc6f3a9a	-0.014601374
11	0xbe4f7bbf	-0.20262049
12	0xbd91fb8a	-0.071280554
13	0x3bc79ea6	0.0060919104
14	0x80000004	-6e-45
15	0x00000002	3e-45

backbone.1.conv.0.1.running_var f4 [16]
0	0x00000004	6e-45
1	0x3ca07918	0.019588992
2	0x3cded785	0.027202377
3	0x3d49bcb4	0.049252227
4	0x3e332ba6	0.1749712
5	0x3d4e9c85	0.050442237
6	0x3c5090cf	0.012729838
7	0x3ecf48f0	0.40485334
8	0x3cddad84	0.027060278
9	0x00000004	6e-45
10	0x3c0fe429	0.008782425
11	0x3def369d	0.116803385
12	0x3cdf5cd9	0.027265953
13	0x3a770e93	0.0009424474
14	0x00000004	6e-45
15	0x00000004	6e-45

backbone.1.conv.0.1.weight f4 [16]
0	0x80005eac	-3.3962e-41
1	0x3f17a6b8	0.5923877
2	0x3f46d18d	0.776635
3	0x3f044d36	0.51680315
4	0x3f77b4cd	0.96760255
5	0x3ec50d0e	0.38486522
6	0x3efebeea	0.4975503
7	0x3f37afa2	0.7175237
8	0x3f2924c2	0.6607171
9	0x80003f8d	-2.2798e-41
10	0x3e25199a	0.16123047
11	0x3f6e353e	0.9304999
12	0x3f5836f6	0.84458864
13	0x3e63a0de	0.22229335
14	0x00006931	3.7736e-41
15	0x000004e6	1.757e-42

backbone.1.conv.1.weight f4 [8, 16, 1, 1]
0	0x00007ebf	4.5468e-41
1	0x3dfa8d8a	0.12234028
2	0xbd2ed98d	-0.04268794
3	0x3dad6883	0.084672
4	0xbdecd6fb	-0.11564442
5	0x3f17cb3e	0.592945
6	0x3ecb8241	0.39747813
7	0xbe32d623	-0.17464499
8	0xbd910b80	-0.070822716
9	0x0000812d	4.634e-41
10	0x3d501a97	0.050806608
11	0x3e40a83e	0.1881418
12	0x3d34aefb	0.044112187
13	0x3e0d8b7d	0.13822742
14	0x800027d3	-1.4286e-41
15	0x8000445b	-2.4521e-41
16	0x00002db3	1.6394e-41
17	0xbb84e518	-0.0040556304
18	0xbf0c7199	-0.54860836
19	0xbe151661	-0.14559318
20	0x3e06273e	0.13100907
21	0xbd562a44	-0.0522864
22	0xbd642b80	-0.055705547
23	0x3d3dfd2d	0.046384025
24	0x3c96fa22	0.01842982
25	0x0000137d	6.991e-42
26	0x3e583628	0.21114409
27	0xbe3df140	-0.18549061
28	0xbe857e4c	-0.2607292
29	0x3cdbb9b0	0.026821941
30	0x00005e57	3.3843e-41
31	0x0000abee	6.1677e-41
32	0x80005f61	-3.4216e-41
33	0x3ee9f4f2	0.4569469
34	0x3dcb9c1b	0.09941884
35	0x3eba3ec0	0.36376
36	0xbe741b2c	-0.2383849
37	0xbeca9950	-0.39570093
38	0xbdecea6d	-0.11568151
39	0x3dd11142	0.1020837
40	0xbed62591	-0.41825536
41	0x000089ad	4.9389e-41
42	0xbdd74c68	-0.1051262
43	0x3e57b68c	0.2106573
44	0xbdfc995e	-0.1233394
45	0x3b9a5e19	0.0047109243
46	0x800051b0	-2.9304e-41
47	0x80008068	-4.6063e-41
48	0x800060f6	-3.4783e-41
49	0xbe8eaf8d	-0.2786831
50	0xbe3eb820	-0.18624926
51	0x3dce6bfe	0.100791916
52	0x3e9e5ece	0.30931705
53	0xbec6142d	-0.38687268
54	0x3ddce5df	0.10786032
55	0xbdcfbcd5	-0.10143439
56	0xbddf92a4	-0.10916641
57	0x80003299	-1.8151e-41
58	0x3c8b26ae	0.016986217
59	0xbeb3009a	-0.34961396
60	0x3ef7acb9	0.48373964
61	0x3db839d1	0.089954026
62	0x80000477	-1.602e-42
63	0x800002b8	-9.75e-43
64	0x00003d8a	2.2076e-41
65	0xbe6e4971	-0.23270203
66	0x3e96db03	0.29463968
67	0xbdaa7ee1	-0.083249815
68	0x3d8ac3b0	0.06775606
69	0xbf263333	-0.64921874
70	0x3e5891ee	0.21149418
71	0xbeab94ac	-0.33511865
72	0x3e008503	0.1255074
73	0x800047ed	-2.5802e-41
74	0x3e8b0f67	0.2716019
75	0xbe29e1de	-0.16590068
76	0xbe458f93	-0.1929305
77	0xbc91fbc3	-0.017820245
78	0x80004099	-2.3173e-41
79	0x800006f4	-2.494e-42
80	0x00008464	4.7493e-41
81	0x3e3e190a	0.18564239
82	0x3ade2ff8	0.0016951552
83	0xbef169fd	-0.47151175
84	0xbe7d8708	-0.24758542
85	0xbe8512b9	-0.25990847
86	0x3e9d70c4	0.30750096
87	0x3f0b3eeb	0.5439288
88	0x3ef59173	0.4796253
89	0x80000a7b	-3.76e-42
90	0xbe20d202	-0.15705112
91	0x3e981b1c	0.29708183
92	0x3d9a10c7	0.07522731
93	0x3d1e2dea	0.038618006
94	0x800099b8	-5.5144e-41
95	0x00002518	1.3307e-41
96	0x80006279	-3.5325e-41
97	0x3f0509d1	0.51968104
98	0xbe100a80	-0.14066505
99	0xbec0a3ca	-0.3762496
100	0xbed11e00	-0.408432
101	0x3d1aa204	0.037752166
102	0xbe8c84a3	-0.27444944
103	0xbf296668	-0.66171885
104	0x3e690130	0.22754359
105	0x8000172a	-8.31e-42
106	0xbe31500e	-0.17315695
107	0x3e789882	0.24276927
108	0x3e10fd66	0.14159164
109	0x3da1dc57	0.079033546
110	0x80004305	-2.4042e-41
111	0x80002ba7	-1.566e-41
112	0x800004b0	-1.682e-42
113	0xbb214e70	-0.0024613403
114	0x3e845d64	0.258525
115	0xbc8d6e2e	-0.017264452
116	0x3ee933e1	0.45547393
117	0x3f0baf3f	0.5456428
118	0xbdc5f811	-0.096664555
119	0x3e0fc2c9	0.14039148
120	0x3b8e948d	0.0043512047
121	0x000067d0	3.7241e-41
122	0x3e5625de	0.20912883
123	0xbf051fa7	-0.5200142
124	0xbde6ea2f	-0.11275136
125	0x3e6c9503	0.23103718
126	0x80006a26	-3.8079e-41
127	0x80008253	-4.6752e-41

backbone.1.conv.2.bias f4 [8]
0	0xb6c5b92d	-5.892615e-06
1	0xb56a72e7	-8.7339e-07
2	0xb739a4cb	-1.1065228e-05
3	0xb6691603	-3.4732518e-06
4	0xb6990f22	-4.561517e-06
5	0x3505cac1	4.9841407e-07
6	0x3711d5ba	8.692436e-06
7	0xb675c5b8	-3.6622932e-06

backbone.1.conv.2.running_mean f4 [8]
0	0x3f905f66	1.1279113
1	0xbf4c0429	-0.7969385
2	0xbebd88b1	-0.3701835
3	0xbef690df	-0.48157403
4	0xbf30daca	-0.69083846
5	0x3ed2d286	0.41176242
6	0xbee62773	-0.44951972
7	0x3f87a9a8	1.059865

backbone.1.conv.2.running_var f4 [8]
0	0x3dbdc1f4	0.09265509
1	0x3e4bbea3	0.19896941
2	0x3e3034f1	0.17207696
3	0x3e34fea4	0.17675263
4	0x3e2fc0a6	0.17163333
5	0x3e951f07	0.29125234
6	0x3eccbfb5	0.3999001
7	0x3e1d4354	0.15357715

backbone.1.conv.2.weight f4 [8]
0	0x3ef5c72a	0.48003513
1	0x3f23a93b	0.639301
2	0x3f169452	0.5882007
3	0x3ef2a842	0.47393996
4	0x3f0499a5	0.5179694
5	0x3f179a3f	0.59219736
6	0x3f1219b6	0.5707048
7	0x3ef3f5ed	0.47648564

backbone.10.conv.0.0.weight f4 [144, 24, 1, 1]
0	0x00000244	8.13e-43
1	0x0000628d	3.5353e-41
2	0x00003fb9	2.286e-41
3	0x00005b8e	3.2844e-41
4	0x0000a5bb	5.9453e-41
5	0x8000997b	-5.5058e-41
6	0x80002cd2	-1.6078e-41
7	0x80006a11	-3.805e-41
8	0x80002c57	-1.5906e-41
9	0x80004ed1	-2.8274e-41
10	0x80002a19	-1.5102e-41
11	0x00007622	4.2378e-41
12	0x000029ee	1.5042e-41
13	0x80005c24	-3.3054e-41
14	0x000067fc	3.7303e-41
15	0x8000389e	-2.031e-41
16	0x80003639	-1.9451e-41
17	0x80005c52	-3.3118e-41
18	0x80009724	-5.4219e-41
19	0x0000077e	2.688e-42
20	0x80003c76	-2.1689e-41
21	0x00008926	4.92e-41
22	0x80002c9e	-1.6006e-41
23	0x80008615	-4.81e-41
24	0xbd6c5945	-0.05770232
25	0xbd25dd98	-0.04049453
26	0xbd121e50	-0.03567344
27	0xbd15434e	-0.03644114
28	0xbd1f8f08	-0.038954765
29	0x3d49e975	0.049294908
30	0xbd247981	-0.040154938
31	0x3d69c99e	0.057077043
32	0xbd4cea7a	-0.0500283
33	0xbcb872b2	-0.022515628
34	0xbd85fd60	-0.06542468
35	0xbe19a3b1	-0.1500385
36	0xbd8ba81f	-0.06819176
37	0xbd0d0e3c	-0.034437403
38	0x3e3337d5	0.17501767
39	0xbdb7714c	-0.089571565
40	0x3e163e65	0.14672239
41	0x3c38c0d3	0.011276442
42	0xbdb0bf20	-0.08630204
43	0x3d2649a5	0.040597577
44	0x3ba2d0f9	0.004968759
45	0x3d82ec1a	0.06392689
46	0x3d9427f5	0.07234184
47	0x3cece522	0.028917853
48	0xbdc926b3	-0.098218344
49	0x3e0e670b	0.13906495
50	0x3df7d8b6	0.12101881
51	0x3d57a099	0.052643392
52	0xbe4c389f	-0.19943474
53	0x37818715	1.54409e-05
54	0x3d120f0c	0.03565888
55	0x3d7a0186	0.06103661
56	0x3e2597e0	0.16171217
57	0xbc0e1d11	-0.008673922
58	0xbd874d39	-0.06606526
59	0x3de4006e	0.111328945
60	0x3da2a76b	0.07942089
61	0xbe01a7ab	-0.12661617
62	0x3cd26b6c	0.025685988
63	0xbdf88398	-0.121344745
64	0x3d76c71b	0.060248476
65	0xbdb959d7	-0.09050339
66	0xbe28fb4f	-0.16502117
67	0xbdaeae7d	-0.08529375
68	0x3dca877f	0.09889125
69	0xbbd23c0d	-0.00641585
70	0xbe271867	-0.16317903
71	0xbd0efafa	-0.03490732
72	0x3ca45611	0.02006057
73	0xbc4f3e1b	-0.012649084
74	0x3d1d7381	0.03844023
75	0xbd4dbf22	-0.050231107
76	0xb9c9e988	-0.00038511702
77	0xbc0eead0	-0.008722976
78	0x3e7a7176	0.24457344
79	0x3e2b3ff3	0.16723613
80	0x3de4e547	0.11176544
81	0xbdbb136a	-0.09134562
82	0xbdef7d32	-0.11693801
83	0xbdeb0d41	-0.11477137
84	0xbd67cc2f	-0.05659121
85	0xbcff61b9	-0.031174527
86	0xbd88fab5	-0.066884436
87	0x3ce7a889	0.028278606
88	0xbd03b916	-0.032158934
89	0xbd01c877	-0.03168532
90	0x3da735fc	0.081645936
91	0x3ce1d800	0.027568817
92	0xbc93bff7	-0.018035872
93	0x3d655669	0.05599061
94	0x3dcc6bc6	0.09981494
95	0x3d3ee06a	0.046600737
96	0xbd0b8c7a	-0.034069516
97	0x3d3e30d9	0.046433304
98	0x3deab1ce	0.11459695
99	0xbd24d796	-0.04024466
100	0x3d31725b	0.04332195
101	0x3e1e5be8	0.15464747
102	0x3e270ff6	0.16314682
103	0x3e22c770	0.15896392
104	0xbd4d9dc8	-0.0501993
105	0x3cb7ba90	0.022427827
106	0xbe59b393	-0.21259908
107	0xbe14fba0	-0.14549112
108	0xbd572e7c	-0.052534565
109	0xbdcee63f	-0.1010251
110	0x3e0471bf	0.12934016
111	0x3d6dabfb	0.05802534
112	0x3d43d261	0.047808055
113	0x3db03822	0.086044565
114	0x3c6570d9	0.014003956
115	0xbd8a6692	-0.06757845
116	0xbdc0d744	-0.09416059
117	0xbd05db75	-0.032679994
118	0xbddfe5d7	-0.1093251
119	0xbd8ef1ff	-0.06979751
120	0xbe032692	-0.12807682
121	0x3dfa6fe9	0.122283764
122	0xbd209edd	-0.039214004
123	0xbc295f0d	-0.010337603
124	0x3dbd5720	0.092451334
125	0x3dae2a45	0.08504156
126	0xbdc7635e	-0.0973575
127	0xbc9284c2	-0.01788557
128	0xbdd57487	-0.104226165
129	0xbd483b1a	-0.04888449
130	0x3d9a1f9a	0.07525559
131	0x3c43d6cf	0.01195307
132	0xbceae32f	-0.028672783
133	0xbd7934cc	-0.060841367
134	0xbdfd93d2	-0.1238171
135	0x3bea8b9c	0.007157756
136	0xbe7cef06	-0.24700555
137	0x3cad3a5c	0.021145992
138	0xbbd7eaa4	-0.0065892506
139	0xbb41fbf6	-0.0029599643
140	0x3e35dc0c	0.17759722
141	0x3cbdf127	0.02318628
142	0xbe2ad5d8	-0.16683137
143	0x3e0ccb4c	0.13749427
144	0xbde3e52b	-0.11127695
145	0xbe3b5f2d	-0.18298025
146	0xbdc214f4	-0.09476653
147	0x3d1b3afb	0.037898045
148	0xbda4050d	-0.08008776
149	0xbe01f697	-0.12691723
150	0xbd056bf8	-0.03257367
151	0x3df1afcf	0.11801111
152	0x3e071226	0.13190517
153	0xbd931c25	-0.071831025
154	0x3d56a392	0.052402087
155	0xbda27a5c	-0.079334944
156	0xbdc49b11	-0.09599889
157	0xbe3b0194	-0.18262321
158	0xbd2050f4	-0.039139703
159	0x3e45325d	0.19257493
160	0xbdd20097	-0.10254019
161	0xbdc6f02e	-0.097137794
162	0x3c33edf1	0.010982023
163	0xbab5249f	-0.0013820118
164	0xbe229261	-0.15876152
165	0x3d55eca8	0.052227646
166	0x3de0649e	0.10956691
167	0x3c7b1789	0.015325435
168	0x3c6ec752	0.014573889
169	0xbda6df9d	-0.081481196
170	0x3dec2710	0.11530888
171	0x3c2be048	0.010490485
172	0x3d83dabf	0.06438207
173	0x3cf6ab81	0.030111076
174	0xbcab196a	-0.020886142
175	0xbe081f00	-0.13293076
176	0x3dcb6ca1	0.09932829
177	0xbd349c24	-0.04409422
178	0xbdc59773	-0.09648027
179	0xbda99475	-0.08280269
180	0xbd987f0f	-0.074461095
181	0xbd10e276	-0.03537222
182	0x3d1731a0	0.03691256
183	0xbd985d15	-0.07439629
184	0xba9b63ab	-0.0011855265
185	0x3e2747a8	0.16335928
186	0xbe518481	-0.20460702
187	0xbe73f220	-0.23822832
188	0x3d2382e6	0.039919756
189	0xbd80916f	-0.06277739
190	0xbd997503	-0.07493021
191	0xbd98880b	-0.07447823
192	0x3cd2da19	0.025738763
193	0x3e190c20	0.14946032
194	0x3bf30ed8	0.007417541
195	0xbd65eee5	-0.05613603
196	0xbc7b257e	-0.015328763
197	0x3e153464	0.14570767
198	0xbc64f028	-0.013973273
199	0x3dd3a156	0.10333507
200	0xbe32cdcf	-0.17461322
201	0xbb391791	-0.0028242806
202	0x3c16792e	0.009184165
203	0xbb066f86	-0.002051325
204	0xbd6b5e89	-0.057463203
205	0xbe151b3b	-0.14561169
206	0xbe3fd995	-0.18735345
207	0x3e2404d5	0.16017468
208	0xbd39c67c	-0.045355305
209	0x3d534b4b	0.051585477
210	0x3c96ff60	0.01843232
211	0x3d25ecb1	0.04050893
212	0xbe267b09	-0.16257872
213	0x3e0673ce	0.13130113
214	0xbb300a45	-0.002686159
215	0x3cacfa60	0.021115482
216	0xbd37e506	-0.04489615
217	0x3c8b5ad2	0.01701108
218	0x3d0327e6	0.032020472
219	0xbdf0e857	-0.11763065
220	0xbd1630cf	-0.03666764
221	0xbc3630e0	-0.011120051
222	0xbd91a5b8	-0.071116865
223	0x3d252b0a	0.04032425
224	0x3dd16e47	0.10226112
225	0x3dc19e43	0.09454014
226	0x3e3e61ec	0.18592042
227	0x3e1386a7	0.14406835
228	0xbc446a4b	-0.011988233
229	0x3d41c1ea	0.04730407
230	0x3da23c9a	0.07921715
231	0xbd715af0	-0.058924615
232	0xbe7cfa42	-0.24704841
233	0xbe451604	-0.1924668
234	0x3dc137b0	0.0943445
235	0xbd8e454a	-0.069468096
236	0x3d53c4c9	0.05170134
237	0x3da8ebc5	0.082480945
238	0xbdde27ec	-0.10847458
239	0x3dc48034	0.09594765
240	0xbd3ca597	-0.046056356
241	0x3d41ea2d	0.047342468
242	0x3d894ed1	0.06704486
243	0xbcbebe62	-0.023284141
244	0x3d72146a	0.0591015
245	0xbdca523d	-0.09878967
246	0xbd81febe	-0.06347416
247	0xbcdfbabf	-0.027310727
248	0x3d18519e	0.03718721
249	0x3d6dcc79	0.05805633
250	0xbdd40750	-0.10352957
251	0xbda0af10	-0.078458905
252	0x3cf7c33a	0.030244458
253	0x3bec458f	0.0072104405
254	0xbd0ab3cd	-0.033862878
255	0x3cba81e5	0.022767017

backbone.10.conv.0.1.bias f4 [144]
0	0x00005f77	3.4246e-41
1	0xbe12d2f4	-0.14338285
2	0xbd0bd663	-0.034140002
3	0x3dd5b8b7	0.10435622
4	0x3dd34b23	0.103170656
5	0x3d4bd68e	0.049765162
6	0xbddf596e	-0.10905729
7	0xbd84c8f0	-0.06483638
8	0x3d281dc2	0.041044004
9	0xbc4d481f	-0.012529402
10	0x3e1b8a1e	0.15189406
11	0x80006ec6	-3.9738e-41
12	0xbdaa51ba	-0.08316369
13	0x00003744	1.9826e-41
14	0x3e1ca61b	0.15297739
15	0xbd87e1fc	-0.066349
16	0xbd2271cf	-0.039659318
17	0x3d4e051d	0.050297845
18	0x3e2346a6	0.15944919
19	0x3cee445d	0.029085333
20	0xbe031fb8	-0.12805068
21	0xbd01f248	-0.031725198
22	0xbe09ddd8	-0.13463533
23	0x00005691	3.1054e-41
24	0xbd2f2b93	-0.042766165
25	0x3a66842d	0.00087934994
26	0x00000040	9e-44
27	0x3dc5ee48	0.09664589
28	0x3d8c5cb7	0.068536215
29	0x3df91b7e	0.12163447
30	0xbcf5adb0	-0.029990047
31	0x3c0360e0	0.008018702
32	0xbd5bffcc	-0.053710744
33	0x3d58bd30	0.0529148
34	0x3e29d74c	0.16586035
35	0x3d3d1f70	0.04617256
36	0xbca92f63	-0.020652479
37	0x3d160f55	0.036635716
38	0xbd9359e4	-0.0719488
39	0x3df416a1	0.119183786
40	0xbd8e3772	-0.06944169
41	0xbc222c6d	-0.009898287
42	0x3dae41c6	0.08508639
43	0x3d5d0981	0.05396414
44	0x3e0423ed	0.1290433
45	0x3b8fecdf	0.004392251
46	0x3dd776a0	0.10520673
47	0x3df8f417	0.121559314
48	0x3b26dcbd	0.002546116
49	0xbe12ed11	-0.14348246
50	0xbd36297f	-0.044473168
51	0xbdcb4a82	-0.099263206
52	0x3e1a583d	0.15072723
53	0xbd948852	-0.072525635
54	0xbdb06f9a	-0.08615036
55	0x3dfa349b	0.12217065
56	0xbd20d694	-0.039267138
57	0x3e24efde	0.16107127
58	0xbdb35768	-0.08756906
59	0x3e0f6bdb	0.14005987
60	0x3d0e01c4	0.034669653
61	0x3e2b9475	0.1675585
62	0x3d9735ec	0.07383332
63	0x3d9f22bf	0.07770299
64	0x00007ae0	4.4079e-41
65	0x3cc6d9a4	0.024273701
66	0x3e02762c	0.12740391
67	0x3d7ff416	0.062488638
68	0xbde9a054	-0.11407533
69	0xbe046676	-0.12929711
70	0x3dd48c09	0.10378272
71	0xbd45b213	-0.048265528
72	0xbc83e909	-0.01610233
73	0x3d583970	0.05278915
74	0x3c3331e8	0.010937192
75	0xbd713199	-0.05888519
76	0xbda33fb6	-0.07971136
77	0x3c504bf7	0.012713424
78	0xbe2f0603	-0.17092137
79	0xbd903deb	-0.0704306
80	0xbd9c566f	-0.076336734
81	0x3dd67593	0.10471644
82	0x8000a027	-5.7452e-41
83	0x3d747521	0.059682015
84	0xbdeb5df9	-0.11492533
85	0xbd644c6c	-0.055736944
86	0xbbd1f5d5	-0.0064074793
87	0x3de51c79	0.11187071
88	0x3c6624a7	0.014046825
89	0xbd02d21d	-0.03193866
90	0x3db166ab	0.086621605
91	0x3da21c60	0.07915568
92	0xbe0108a9	-0.1260096
93	0x3de44f43	0.111479305
94	0xbbd9c8f3	-0.0066462695
95	0xbda059d3	-0.078296326
96	0xbc10be69	-0.00883446
97	0xbccae6d2	-0.024768267
98	0x3a9606b9	0.0011446095
99	0x3e06892e	0.13138267
100	0x3cd75bf1	0.026288958
101	0xbce4d6f6	-0.027934533
102	0xbda45b91	-0.080252774
103	0x3e580779	0.210966
104	0x3dbcd8b7	0.092210226
105	0xbd183546	-0.03716018
106	0x3e1df9a4	0.15427262
107	0x3e04989a	0.12948838
108	0xbe13fab4	-0.14451104
109	0x3c90d40d	0.017679239
110	0xba138ed2	-0.0005628887
111	0x3cd73ec7	0.026275052
112	0x3da8949f	0.08231472
113	0x3daa21db	0.08307239
114	0xbdadb464	-0.084816724
115	0xbd8ac98c	-0.06776723
116	0x3de13cb8	0.10997909
117	0x3d9125bc	0.070872754
118	0xbdbf75db	-0.09348651
119	0xbdd5b109	-0.104341574
120	0x80004d32	-2.7692e-41
121	0x3d63470f	0.05548769
122	0xbdbfb39e	-0.09360431
123	0x3deeb3e2	0.11655404
124	0xbdbff834	-0.09373513
125	0x3da0af1f	0.07845902
126	0x3cff6866	0.03117771
127	0xb94710a7	-0.00018984322
128	0xbbd1d9bb	-0.0064041293
129	0x3e17ac09	0.1481172
130	0xbdc421e0	-0.09576774
131	0x3cf420e4	0.02980084
132	0xbccc21c6	-0.024918448
133	0xbb381200	-0.00280869
134	0x3da6dfb9	0.081481405
135	0x3d19de67	0.037565615
136	0xbd1aa88c	-0.037758395
137	0x3ca49867	0.020092202
138	0x3e07ed8f	0.13274215
139	0x3e042766	0.12905654
140	0x3e57ed5d	0.2108664
141	0xbdb81a79	-0.08989424
142	0xbdac3dbb	-0.08410212
143	0x3e40bd42	0.18822196

backbone.10.conv.0.1.running_mean f4 [144]
0	0x80000004	-6e-45
1	0x35e50077	1.7061965e-06
2	0x3503eb14	4.9143387e-07
3	0x34951ee1	2.777588e-07
4	0x35362e26	6.786744e-07
5	0xb54b3cdf	-7.571197e-07
6	0xb518d1eb	-5.6929883e-07
7	0x358f1e8d	1.0663222e-06
8	0xb5a085c0	-1.1959855e-06
9	0xb5a4b104	-1.227047e-06
10	0x35928d9e	1.0919064e-06
11	0x00000004	6e-45
12	0x34e20756	4.2101118e-07
13	0x80000004	-6e-45
14	0x35984cb8	1.1347211e-06
15	0xb6031fe1	-1.9539077e-06
16	0x359b6e28	1.158046e-06
17	0x355f6079	8.321436e-07
18	0xb3c96e0b	-9.3798086e-08
19	0x353574ef	6.7597915e-07
20	0xb5c3036c	-1.4529628e-06
21	0xb55b6eef	-8.174529e-07
22	0xb3eba5f2	-1.09732255e-07
23	0x80000004	-6e-45
24	0x34a674e7	3.1004967e-07
25	0xb55a560a	-8.133653e-07
26	0x80000004	-6e-45
27	0x3585f212	9.979724e-07
28	0xb4e82bdf	-4.3245288e-07
29	0xb2ab851b	-1.996755e-08
30	0x34b4b07e	3.3656028e-07
31	0x35273f6d	6.2304645e-07
32	0xb560c644	-8.3735017e-07
33	0xb5472626	-7.418879e-07
34	0xb5d9e306	-1.6233832e-06
35	0x35d23647	1.5662016e-06
36	0xb52a7172	-6.349502e-07
37	0xb5d12209	-1.5581619e-06
38	0xb4b61874	-3.3917934e-07
39	0x359c5af7	1.164938e-06
40	0xb5ddc49b	-1.6523003e-06
41	0x34624f1d	2.1076671e-07
42	0xb50b5dc0	-5.191796e-07
43	0x35892b20	1.0219846e-06
44	0x35fbb42e	1.8753396e-06
45	0x34755574	2.2848491e-07
46	0x35164940	5.598595e-07
47	0x35c70b14	1.482988e-06
48	0xb51f5aa9	-5.9364044e-07
49	0xb401138a	-1.202117e-07
50	0xb5be7e88	-1.4192929e-06
51	0xb650cd54	-3.1113932e-06
52	0x34e9febb	4.3584973e-07
53	0xb538148d	-6.8575247e-07
54	0x3496de0b	2.8101235e-07
55	0x3630b280	2.6329944e-06
56	0x34922997	2.722488e-07
57	0xb57f5086	-9.511208e-07
58	0x35d54430	1.5889582e-06
59	0x3429b9c6	1.5806935e-07
60	0xb5811333	-9.616837e-07
61	0xb58e2dd6	-1.0593164e-06
62	0x356c7e10	8.8100296e-07
63	0x35917d11	1.0839741e-06
64	0x00000004	6e-45
65	0xb54ee226	-7.707007e-07
66	0x34c019c3	3.578153e-07
67	0x35ad7855	1.2924526e-06
68	0x351fb8a8	5.9500826e-07
69	0xb49ea88f	-2.9552436e-07
70	0xb55b345e	-8.166006e-07
71	0x3544a7f1	7.3260077e-07
72	0xb5b4c5d6	-1.3468623e-06
73	0x340ed4d2	1.3302204e-07
74	0xb4ef34a1	-4.4555512e-07
75	0xb54a1b09	-7.5290205e-07
76	0x35277fe8	6.2398476e-07
77	0xb54487f9	-7.3213556e-07
78	0x357c0735	9.3887803e-07
79	0xb5c6d832	-1.4815071e-06
80	0xb613d2f8	-2.2027507e-06
81	0x34011224	1.2020661e-07
82	0x00000004	6e-45
83	0x35d72b1b	1.6031294e-06
84	0xb5c423d8	-1.461357e-06
85	0xb53b32e8	-6.9737007e-07
86	0x357d64b1	9.439637e-07
87	0x35b3442f	1.3356383e-06
88	0xb5947d90	-1.1063403e-06
89	0x34c8080d	3.725876e-07
90	0x34823ae6	2.425724e-07
91	0xb633dd8d	-2.6802038e-06
92	0xb5eb3d29	-1.7526664e-06
93	0xb5a83670	-1.2532819e-06
94	0x34e97c0e	4.3489894e-07
95	0xb3c6010a	-9.2202825e-08
96	0x334a67ed	4.712631e-08
97	0x33d75eee	1.0028985e-07
98	0x31852b0f	3.8757046e-09
99	0xb56db44c	-8.8551747e-07
100	0x35e1f3d7	1.6834773e-06
101	0xb4ebd457	-4.3926659e-07
102	0x3526abf8	6.2090066e-07
103	0xb5991d1f	-1.1407864e-06
104	0xb55964fd	-8.0985757e-07
105	0x34a88618	3.1390005e-07
106	0xb4d9a5fc	-4.054017e-07
107	0x34ca791e	3.7713556e-07
108	0x35257062	6.163083e-07
109	0x35690b12	8.6815373e-07
110	0xb4b0d5a8	-3.293801e-07
111	0x35458cdf	7.3593213e-07
112	0xb5a87f02	-1.255394e-06
113	0x358e83de	1.0618203e-06
114	0xb5579362	-8.030821e-07
115	0xb2a0d06a	-1.8721227e-08
116	0xb558f127	-8.0817193e-07
117	0x343752b4	1.707329e-07
118	0xb2bd7b17	-2.205847e-08
119	0xb5c0b50a	-1.4357804e-06
120	0x80000001	-1e-45
121	0x355b6630	8.173256e-07
122	0xb4cf447c	-3.8606584e-07
123	0x359fd36d	1.1907956e-06
124	0x340c051a	1.3040372e-07
125	0x355e29ae	8.2762097e-07
126	0xb471256c	-2.2458488e-07
127	0x3294bb07	1.7314518e-08
128	0xb4dfb300	-4.1667226e-07
129	0xb5ccd37a	-1.5260732e-06
130	0xb4776100	-2.3038956e-07
131	0x34de844d	4.1446984e-07
132	0x3582e337	9.751883e-07
133	0x35a45cc8	1.2245955e-06
134	0x35eea6f0	1.7780967e-06
135	0x3598af8a	1.1375971e-06
136	0xb579fcf3	-9.312782e-07
137	0xb5870938	-1.0060967e-06
138	0x335f4c19	5.1990444e-08
139	0x34b1c1b1	3.3109748e-07
140	0x35f2f20b	1.8100849e-06
141	0xb550d851	-7.780082e-07
142	0xb49eb1ec	-2.9559249e-07
143	0x3641770b	2.8828533e-06

backbone.10.conv.0.1.running_var f4 [144]
0	0x00000004	6e-45
1	0x3d20b62f	0.039236244
2	0x3d91e72e	0.07124172
3	0x3d80c663	0.06287839
4	0x3ddf274b	0.108961664
5	0x3d92b512	0.07163443
6	0x3dcdd07d	0.100495316
7	0x3ddcfeac	0.10790762
8	0x3d961f38	0.07330173
9	0x3db3f28a	0.08786495
10	0x3cca9a94	0.024731912
11	0x00000004	6e-45
12	0x3da4c4d3	0.08045354
13	0x00000004	6e-45
14	0x3d098f0c	0.033583686
15	0x3d978b08	0.07399565
16	0x3ddd74de	0.10813306
17	0x3dd6eed2	0.1049477
18	0x3da5e701	0.08100701
19	0x3dc8091d	0.09767363
20	0x3db59f23	0.088682435
21	0x3dc7eaa8	0.09761554
22	0x3d9c24f2	0.07624234
23	0x00000004	6e-45
24	0x3d47c0d8	0.048767895
25	0x3db8b919	0.090196796
26	0x00000004	6e-45
27	0x3db46740	0.08808756
28	0x3d808f2e	0.06277309
29	0x3de744dd	0.112924315
30	0x3e000cfd	0.12504955
31	0x3db37571	0.087626345
32	0x3db20089	0.08691508
33	0x3d98e79b	0.0746605
34	0x3dce38fb	0.10069462
35	0x3dac98f6	0.084276125
36	0x3dfa4b5a	0.122214034
37	0x3dabe9c4	0.08394197
38	0x3da68b30	0.08132017
39	0x3e028cbc	0.12748998
40	0x3dcb4d8b	0.099268995
41	0x3da6f6eb	0.081525646
42	0x3d8848b0	0.06654489
43	0x3dfb7c90	0.12279618
44	0x3daa729b	0.083226405
45	0x3dfb1816	0.122604534
46	0x3e0d4f86	0.13799867
47	0x3d89e6c1	0.06733466
48	0x3da4ef85	0.08053497
49	0x3d64aec0	0.055830717
50	0x3dcde494	0.100533634
51	0x3db69a8e	0.08916198
52	0x3cd0fac4	0.0255102
53	0x3dc80ab4	0.097676665
54	0x3dccdffa	0.10003658
55	0x3da10f25	0.07864217
56	0x3da97894	0.082749516
57	0x3d11afa2	0.035567887
58	0x3dd328b5	0.103104986
59	0x3d608c94	0.054821566
60	0x3dbd5350	0.09244406
61	0x3d970b23	0.07375171
62	0x3d8faeae	0.070157394
63	0x3dd22f14	0.10262886
64	0x00000004	6e-45
65	0x3da29272	0.079380885
66	0x3e031950	0.12802625
67	0x3d854fd7	0.06509369
68	0x3db5017c	0.08838174
69	0x3dcb45ee	0.099254474
70	0x3d8015c0	0.062541485
71	0x3db279dd	0.0871465
72	0x3dc4d494	0.096108586
73	0x3dda18b5	0.10649244
74	0x3dcf5c64	0.10125044
75	0x3db2d623	0.087322496
76	0x3d991855	0.07475344
77	0x3dbb804e	0.091553316
78	0x3dd89867	0.105759434
79	0x3e2be7d6	0.16787657
80	0x3d98d24e	0.074619874
81	0x3dae81ea	0.08520873
82	0x00000004	6e-45
83	0x3dc65377	0.096838884
84	0x3e0834c6	0.13301381
85	0x3d967098	0.07345694
86	0x3d6965be	0.056981795
87	0x3d97a84b	0.07405146
88	0x3d94e7b6	0.07270758
89	0x3d7abbf5	0.061214406
90	0x3d9ae3b0	0.07562959
91	0x3db2a4ba	0.08722825
92	0x3dd17bf2	0.10228719
93	0x3e0a08e8	0.1347996
94	0x3d5e1838	0.054222316
95	0x3dcc5b92	0.09978403
96	0x3d829fe7	0.06378155
97	0x3e081b93	0.13291769
98	0x3d9d7e66	0.07690124
99	0x3d949dc1	0.07256652
100	0x3db577ff	0.08860778
101	0x3d85cb09	0.065328665
102	0x3db1033e	0.086431965
103	0x3d809801	0.062789924
104	0x3d81efff	0.06344604
105	0x3da9e8e3	0.08296373
106	0x3d3e18b1	0.046410266
107	0x3d3456bc	0.04402803
108	0x3d68c998	0.05683288
109	0x3d9e2040	0.07720995
110	0x3d9d77f1	0.07688893
111	0x3d60ac1b	0.054851633
112	0x3e154bf1	0.1457975
113	0x3dad070f	0.08448612
114	0x3dce8ca8	0.10085422
115	0x3dc232f2	0.09482373
116	0x3d5cae51	0.05387718
117	0x3dad20ef	0.08453547
118	0x3cb5ec5f	0.022207437
119	0x3dd026ec	0.10163674
120	0x00000004	6e-45
121	0x3dbddaf6	0.09270279
122	0x3da4c86e	0.080460414
123	0x3d91535a	0.07095976
124	0x3d85773a	0.06516881
125	0x3daf6a0a	0.08565147
126	0x3dbeb266	0.093113706
127	0x3db77fa3	0.08959892
128	0x3d8729d9	0.06599779
129	0x3d9e44e0	0.077279806
130	0x3dcfab78	0.10140127
131	0x3db401dd	0.08789418
132	0x3d939354	0.07205835
133	0x3e27c28a	0.16382805
134	0x3e1cb396	0.15302882
135	0x3df5284e	0.11970578
136	0x3e0ccf4c	0.13750952
137	0x3dabbe76	0.08385937
138	0x3d92e34c	0.0717226
139	0x3dbb69e1	0.09151054
140	0x3dd5bc79	0.10436339
141	0x3dbdbb47	0.09264236
142	0x3dbdc5ab	0.09266218
143	0x3d8ca8cd	0.06868134

backbone.10.conv.0.1.weight f4 [144]
0	0x00008733	4.85e-41
1	0x3de62f5d	0.112395026
2	0x3e19b06c	0.15008706
3	0x3dcfaa6c	0.10139927
4	0x3e128d91	0.14311816
5	0x3e1ed7a8	0.15511954
6	0x3de6bac7	0.11266094
7	0x3e0737db	0.13204901
8	0x3e06d860	0.13168478
9	0x3e055fc9	0.1302482
10	0x3d8bfdb6	0.06835501
11	0x80004262	-2.3814e-41
12	0x3dda7e0e	0.10668574
13	0x80005469	-3.028e-41
14	0x3dba99c9	0.091113634
15	0x3e2c768b	0.16842096
16	0x3e229fb9	0.15881242
17	0x3dfaedeb	0.122524105
18	0x3d8d5f77	0.06902974
19	0x3e209537	0.15681921
20	0x3dfceb58	0.12349576
21	0x3e07d367	0.13264237
22	0x3e0ed676	0.13948998
23	0x00006e9b	3.9678e-41
24	0x3dfbb3c5	0.12290148
25	0x3e0abec7	0.13549338
26	0x80004659	-2.5236e-41
27	0x3df7b60a	0.12095268
28	0x3e02a85d	0.12759538
29	0x3e24a9d1	0.16080405
30	0x3e30e57f	0.17275046
31	0x3e113fd6	0.14184508
32	0x3e1417bf	0.14462183
33	0x3ddd19d4	0.10795942
34	0x3dd40ca7	0.10353976
35	0x3e39db4f	0.18150066
36	0x3e178ea9	0.14800514
37	0x3e2d6727	0.16933881
38	0x3de432f0	0.11142528
39	0x3defd917	0.117113285
40	0x3e10ea5a	0.14151898
41	0x3e23f5fe	0.16011807
42	0x3e0b0c5f	0.13578938
43	0x3e195064	0.14972073
44	0x3dc535ba	0.09629388
45	0x3e040b39	0.12894906
46	0x3e02044f	0.12696956
47	0x3dc1e70c	0.09467897
48	0x3e042a31	0.1290672
49	0x3dba975e	0.09110902
50	0x3e4fd4bf	0.20296
51	0x3df39443	0.11893513
52	0x3d588741	0.052863363
53	0x3e095f47	0.13415252
54	0x3e01dce3	0.12681918
55	0x3e058974	0.13040715
56	0x3e1f1384	0.15534788
57	0x3d9787bc	0.07398936
58	0x3e0c9e6a	0.13732305
59	0x3ddd1914	0.10795799
60	0x3e13df46	0.14440641
61	0x3db6ce9c	0.08926126
62	0x3e05f941	0.13083364
63	0x3de710ca	0.11282499
64	0x00008077	4.6085e-41
65	0x3e2708d2	0.16311958
66	0x3ddac347	0.106817774
67	0x3e00a04f	0.12561153
68	0x3dca1627	0.098675065
69	0x3de61649	0.11234719
70	0x3dd578fd	0.10423467
71	0x3e0b8d58	0.13628137
72	0x3e4b55f7	0.19857012
73	0x3e232d2c	0.159352
74	0x3e1b7f14	0.15185195
75	0x3e1d69fb	0.1537246
76	0x3e1bc261	0.15210868
77	0x3dfe440c	0.12415323
78	0x3df9af9d	0.12191699
79	0x3e2de9f2	0.16983774
80	0x3de90026	0.113769814
81	0x3dd87367	0.10568886
82	0x80006646	-3.6689e-41
83	0x3e0556aa	0.13021341
84	0x3df2552f	0.11832654
85	0x3dec0746	0.11524825
86	0x3df2061a	0.1181757
87	0x3e150362	0.14552072
88	0x3de15f95	0.11004559
89	0x3e200c64	0.15629727
90	0x3df478b9	0.119370885
91	0x3dfe95b2	0.12430896
92	0x3dfffe1d	0.1249964
93	0x3e1cefb4	0.15325814
94	0x3de84142	0.11340572
95	0x3e1e01b4	0.15430337
96	0x3e11fcf1	0.14256646
97	0x3e149dc6	0.14513311
98	0x3e17a564	0.14809185
99	0x3d96e7c0	0.073684216
100	0x3e119b8d	0.14219494
101	0x3e11c9ed	0.14237185
102	0x3e166c0e	0.14689657
103	0x3db1d7b4	0.0868372
104	0x3de6b144	0.112642795
105	0x3ddec00d	0.108764745
106	0x3db9aef5	0.090665735
107	0x3dad7138	0.084688604
108	0x3dcb2897	0.09919851
109	0x3e104e3f	0.14092349
110	0x3deec97c	0.11659524
111	0x3dd0e250	0.10199416
112	0x3e1e33f7	0.1544951
113	0x3e1fd179	0.15607251
114	0x3dfa4aeb	0.12221321
115	0x3e19fc65	0.15037687
116	0x3db2385d	0.08702157
117	0x3dfaf442	0.1225362
118	0x3dbafa05	0.09129719
119	0x3e5e792c	0.21725911
120	0x00006313	3.5541e-41
121	0x3e1dbde0	0.15404463
122	0x3dcd8615	0.1003534
123	0x3dd3f6b8	0.10349792
124	0x3dfa38ba	0.12217851
125	0x3e1b4e83	0.15166669
126	0x3de5bc32	0.11217536
127	0x3e098ac5	0.13431843
128	0x3dffee20	0.124965906
129	0x3dcfe40a	0.10150917
130	0x3df485b3	0.119395636
131	0x3e1ac34e	0.15113565
132	0x3de193ff	0.11014556
133	0x3e1e583e	0.15463349
134	0x3e1fa700	0.15591049
135	0x3e40a678	0.18813503
136	0x3e3b3042	0.18280128
137	0x3df9ef10	0.12203801
138	0x3d67df1c	0.056609258
139	0x3e08833b	0.1333131
140	0x3df8a1fa	0.121402696
141	0x3e0ea171	0.13928773
142	0x3df54646	0.11976294
143	0x3e06b9f1	0.13156869

backbone.10.conv.1.0.weight f4 [144, 1, 3, 3]
0	0x000060d0	3.473e-41
1	0x8000ab19	-6.1378e-41
2	0x80009fe5	-5.736e-41
3	0x00005cf4	3.3345e-41
4	0x80006b2c	-3.8446e-41
5	0x800069d1	-3.796e-41
6	0x80006923	-3.7716e-41
7	0x8000862a	-4.8129e-41
8	0x800042ee	-2.401e-41
9	0x3c9901b6	0.018677574
10	0x3da7afee	0.08187853
11	0x3d0dfe8f	0.034666594
12	0x3de2f1a9	0.11081249
13	0x3d29931d	0.041400064
14	0x3dd1a582	0.10236646
15	0x3ddcaedf	0.107755415
16	0x3d997a39	0.07494015
17	0x3dce164b	0.10062846
18	0xbcab3e3a	-0.020903695
19	0x3e0f6298	0.14002454
20	0x3ddb0ff5	0.10696403
21	0x3e5d53ce	0.21614
22	0x3e0c93b7	0.13728224
23	0xbd51c5a5	-0.05121388
24	0xbd9ceeed	-0.07662759
25	0xbc55a81d	-0.01304057
26	0xbd571575	-0.052510697
27	0xbe160113	-0.14648847
28	0xbd416891	-0.047218863
29	0x3df1a0f9	0.11798281
30	0xbe0fb7d1	-0.14034964
31	0xbbf52ccb	-0.0074821464
32	0x3d9048e7	0.07045155
33	0x3d082893	0.03324182
34	0xbd8c392b	-0.068468414
35	0xbd8af049	-0.06784112
36	0xbdb448db	-0.088029586
37	0xbd75bc97	-0.059994306
38	0x3d8b83df	0.06812262
39	0xbe485540	-0.1956377
40	0x3cb57a15	0.02215294
41	0x3e701730	0.23446345
42	0xbd457da3	-0.04821552
43	0x3d800894	0.06251636
44	0x3db69ed3	0.08917012
45	0xbe0c6ff6	-0.13714585
46	0x3cebfe04	0.028807648
47	0x3de32c76	0.110924646
48	0xbe63070a	-0.22170654
49	0x3dc76aff	0.09737205
50	0x3e109c70	0.14122176
51	0xbddb3457	-0.107033424
52	0xbdcfe747	-0.101515345
53	0x3d0d4459	0.03448901
54	0xbe0a58b5	-0.13510402
55	0xbcc9fd09	-0.02465679
56	0x3de10818	0.10987872
57	0xbcbcd184	-0.023049124
58	0xbd697f52	-0.057006188
59	0x3e3525e0	0.1769023
60	0x3d7c325f	0.061571475
61	0xbdeb8b1c	-0.115011424
62	0x3dbfe50a	0.093698576
63	0xbc494e4d	-0.012286735
64	0x3ddb77c0	0.107162
65	0x3d8be025	0.068298616
66	0xbd03cf35	-0.03218003
67	0x3e88dad2	0.26729447
68	0x3cef5fa6	0.029220413
69	0x3c503ad1	0.012709335
70	0x3ba9870f	0.005173571
71	0xbd5191cc	-0.051164433
72	0xbe090b1d	-0.13383146
73	0x3dcf3e79	0.101193376
74	0xbe78cc63	-0.24296717
75	0xb9118f49	-0.00013881655
76	0x3e14e5a3	0.14540724
77	0xbdf184cc	-0.11792907
78	0x3d71a8c6	0.058998846
79	0xbd773a92	-0.06035859
80	0x3d9da16b	0.07696804
81	0x3e21573e	0.15755937
82	0x3df35c11	0.11882795
83	0x3d83b7ad	0.06431518
84	0x3e04b39f	0.12959145
85	0xbe525650	-0.20540738
86	0xbdfb4ab5	-0.122701086
87	0xbd135ac2	-0.035975225
88	0xbd823b3f	-0.063589565
89	0x3c474e7c	0.012164708
90	0xbd0a1342	-0.033709772
91	0xbd27ee23	-0.04099859
92	0xbcd771d4	-0.026299395
93	0xbd860488	-0.06543833
94	0xbcf34d99	-0.029700087
95	0xbd399b8a	-0.04531435
96	0xbd819696	-0.0632755
97	0xbe3517fb	-0.17684929
98	0xbd40feda	-0.047118045
99	0x800036be	-1.9638e-41
100	0x8000a948	-6.0727e-41
101	0x80001c70	-1.0201e-41
102	0x8000539a	-2.999e-41
103	0x00004b0e	2.6925e-41
104	0x0000aa6a	6.1133e-41
105	0x80006f06	-3.9828e-41
106	0x000051ec	2.9388e-41
107	0x8000462e	-2.5176e-41
108	0x3dd582e4	0.10425356
109	0xbd4044a5	-0.046940465
110	0x3d947a2a	0.072498634
111	0x3e736d3e	0.23772141
112	0xbc390bb4	-0.011294294
113	0xbd86be4f	-0.06579267
114	0x3d85b628	0.06528884
115	0x3d87208f	0.06598007
116	0xbd804117	-0.06262415
117	0x0000a285	5.8301e-41
118	0x0000604f	3.4549e-41
119	0x8000890c	-4.9163e-41
120	0x00001ce4	1.0364e-41
121	0x80007dbd	-4.5106e-41
122	0x800055e5	-3.0813e-41
123	0x80008615	-4.81e-41
124	0x800061cb	-3.5082e-41
125	0x000032ce	1.8225e-41
126	0xbcf0b4b7	-0.029383047
127	0x3de2b02b	0.110687576
128	0xbdf7d6b8	-0.12101501
129	0xbd9dd70a	-0.07707031
130	0x3d94ad0d	0.07259569
131	0xbcce5588	-0.025187269
132	0xbe0b6a69	-0.13614811
133	0xbacd4db3	-0.0015663415
134	0x3d80dcd6	0.06292121
135	0x3ba0d59e	0.0049082777
136	0xbe044bab	-0.1291949
137	0x3d046c2d	0.032329727
138	0x3d4a750d	0.049428035
139	0x3d2a8416	0.041629873
140	0xbc89a534	-0.016802408
141	0x3d9145c9	0.070933886
142	0x3e9e787e	0.30951303
143	0x3dd464e8	0.10370809
144	0x3a3715a0	0.00069841184
145	0xbdbe6d07	-0.09298139
146	0xbb66c85a	-0.0035214634
147	0x3e984077	0.29736683
148	0xbd4d10ae	-0.050064735
149	0xbd6ce2ca	-0.05783347
150	0xbcd7c78e	-0.026340272
151	0x3df55e5f	0.119808905
152	0x3d8639a0	0.0655396
153	0x3da07596	0.07834928
154	0xbd8b6f1b	-0.06808301
155	0x3e29f55a	0.165975
156	0x3dfc4556	0.12317912
157	0x3de7afd6	0.11312835
158	0x3d526506	0.051365875
159	0x3cfa46ca	0.030551333
160	0xbe07c91b	-0.1326031
161	0x3c91ff02	0.017821793
162	0x3d436279	0.047701333
163	0xbe57e418	-0.21083105
164	0xbd881712	-0.06645025
165	0x3cbea605	0.023272524
166	0x3b2566f3	0.0025238364
167	0x3e0bba56	0.136453
168	0xbe264bde	-0.16239879
169	0x3d3be70c	0.04587464
170	0x3e303d16	0.17210802
171	0x3d546d8c	0.051862285
172	0x3e4fe49f	0.20302056
173	0x3d9e556b	0.07731136
174	0x3e199f3e	0.15002152
175	0xbdf924a5	-0.121651925
176	0x3e2ac492	0.16676548
177	0x3d88ece9	0.06685812
178	0x3cecee94	0.028922357
179	0xbb8afb1f	-0.0042413617
180	0x3bbeca1b	0.0058224327
181	0x3e276988	0.1634885
182	0x3e01af2b	0.12664478
183	0x3d96c9d1	0.07362712
184	0xbdb52cd1	-0.08846439
185	0x3e4b680e	0.19863912
186	0x3d255f59	0.040374134
187	0xbc2ce0ce	-0.0105516445
188	0x3e47585a	0.19467297
189	0x3c39c000	0.01133728
190	0xbdfa79df	-0.12230276
191	0xbc7141f2	-0.014725195
192	0x3d9daae6	0.07698612
193	0xbdf26b2a	-0.11836846
194	0xbdc05602	-0.09391405
195	0x3e34ce14	0.17656738
196	0x3dd1992e	0.10234295
197	0x3d06cbff	0.03290939
198	0x3df9764c	0.121807665
199	0xbdb9a5aa	-0.09064801
200	0x3c93b9de	0.018032964
201	0x3dd5bad5	0.10436026
202	0xbd447b32	-0.04796905
203	0x3d9bbefa	0.07604785
204	0x3df1b0a2	0.11801268
205	0x3cc91a5a	0.024548698
206	0x3e4cb6d7	0.19991623
207	0x000099af	5.5131e-41
208	0x0000396b	2.0598e-41
209	0x0000694c	3.7773e-41
210	0x800034b1	-1.8902e-41
211	0x00000999	3.443e-42
212	0x000040f9	2.3308e-41
213	0x80007425	-4.1665e-41
214	0x0000895e	4.9278e-41
215	0x00006660	3.6725e-41
216	0xbe082574	-0.13295537
217	0x3d6a383b	0.05718253
218	0x3ce8def9	0.028426634
219	0x3e1fc3b0	0.15601993
220	0xba5ef0c1	-0.0008504503
221	0xbe1d4cdc	-0.15361351
222	0x3e1310b7	0.14361845
223	0xbe3dcadc	-0.18534416
224	0xbc9e8381	-0.019349815
225	0x3df3e75a	0.11909361
226	0xbb0be628	-0.00213469
227	0xbce395f7	-0.02778147
228	0x3df8c86b	0.12147602
229	0xbd7a66f6	-0.061133347
230	0xbe3a9345	-0.18220241
231	0x3dc37777	0.095442705
232	0xbd6ea017	-0.058258142
233	0xbddb55ad	-0.10709701
234	0x0000817c	4.645e-41
235	0x800036a2	-1.9599e-41
236	0x8000539c	-2.9993e-41
237	0x000007cb	2.796e-42
238	0x00000856	2.99e-42
239	0x80005e1e	-3.3763e-41
240	0x800070fe	-4.0534e-41
241	0x00000488	1.626e-42
242	0x000052e8	2.9741e-41
243	0xbd5c8cbd	-0.053845156
244	0xbca4fa95	-0.020139018
245	0xbda8f041	-0.0824895
246	0x3e1ca8cd	0.15298767
247	0x3d92d2ef	0.07169139
248	0xbcd003b0	-0.025392383
249	0xbe04ab4a	-0.12955967
250	0xbe1255a6	-0.14290485
251	0xbd9613e5	-0.07328013
252	0xbddc0daa	-0.10744794
253	0x3e1b5de5	0.15172537
254	0x3d1ea4d2	0.038731404
255	0xbe28d5d6	-0.16487822

backbone.10.conv.1.1.bias f4 [144]
0	0x8000a8ff	-6.0624e-41
1	0xbde53372	-0.11191453
2	0xbdf51a96	-0.119679615
3	0xbd005f81	-0.03134108
4	0xbd6b695b	-0.05747352
5	0xbda58186	-0.08081345
6	0xbd85273c	-0.06501624
7	0x3d3636b9	0.04448578
8	0x3e20be93	0.15697698
9	0xbd496592	-0.04916913
10	0xbe0574c4	-0.13032824
11	0x800008dc	-3.178e-42
12	0xbe302494	-0.17201453
13	0x8000a39c	-5.8692e-41
14	0xbe0cb510	-0.13740945
15	0xbd76f275	-0.06028982
16	0xbdf90fd3	-0.12161221
17	0xbe3526e4	-0.17690617
18	0xbe01b34e	-0.12666056
19	0xbd7d87db	-0.06189714
20	0xbd4b7414	-0.049671248
21	0x3e451bd8	0.19248903
22	0xbcd4a51f	-0.025957642
23	0x8000a348	-5.8574e-41
24	0x3e331ecb	0.17492215
25	0xbd5c5c76	-0.053799115
26	0x80003555	-1.9132e-41
27	0xbb7da338	-0.0038702022
28	0xbdeea54d	-0.11652622
29	0xbd275bbf	-0.04085898
30	0x3e787923	0.2426496
31	0xbdbacfa5	-0.09121636
32	0xbdca41bf	-0.09875821
33	0xbdb0beee	-0.08630167
34	0xbd00c1f6	-0.031434976
35	0xbd5912b2	-0.052996345
36	0xbbd844b9	-0.0065999893
37	0x3daf64c6	0.08564143
38	0xbb7b380f	-0.0038332974
39	0x3b885e71	0.004161649
40	0x3dbd3b0a	0.092397764
41	0x3e18a46c	0.14906472
42	0xbd08cc5e	-0.033398025
43	0x3da36e11	0.07979978
44	0xbdfe9ffd	-0.12432859
45	0xbdbbe654	-0.09174791
46	0x3e5901fb	0.21192162
47	0x3d41ee32	0.0473463
48	0xbd3edb6c	-0.046595976
49	0xbde9ac17	-0.11409777
50	0xbdd13d15	-0.102167286
51	0xbe52f87d	-0.20602603
52	0xbdd5653c	-0.104196995
53	0xbd907664	-0.07053831
54	0xbd8a9b67	-0.06767922
55	0xbd69f8d8	-0.05712208
56	0xbd6df7b7	-0.058097567
57	0xbdec3f92	-0.115355626
58	0x3d4dc5d8	0.050237507
59	0x3c1207dd	0.008913008
60	0xbd51507e	-0.051102154
61	0x3dc1e790	0.09467995
62	0x3d207fb9	0.039184306
63	0xbce46206	-0.027878772
64	0x80000a1d	-3.628e-42
65	0xbe6d9874	-0.23202688
66	0x3d80d33d	0.062902905
67	0xbce989c6	-0.028508078
68	0xbdaf537d	-0.08560846
69	0x3db580e8	0.088624775
70	0x3de91535	0.11380998
71	0xbcfe56f1	-0.031047316
72	0xbd0b1d23	-0.033963334
73	0x3e0c0924	0.13675362
74	0x3e436bf6	0.19084153
75	0xbd1f6981	-0.038918976
76	0x3da04824	0.0782626
77	0xbe892b92	-0.26791054
78	0x3e86ef37	0.2635438
79	0xbe544c51	-0.20732237
80	0x3da03771	0.078230746
81	0x3aaf61c8	0.0013380582
82	0x00076022	6.77334e-40
83	0x3e8dc302	0.27687842
84	0xbe236859	-0.15957774
85	0xbe80a078	-0.25122428
86	0x3e1a29be	0.15054986
87	0xbbe87421	-0.007093922
88	0xbdbb6de4	-0.09151819
89	0x3e4aa1fe	0.19788358
90	0xbe2133b7	-0.15742384
91	0xbe15225b	-0.14563887
92	0xbe037391	-0.12837054
93	0x3e8a2d80	0.2698784
94	0xbcd466a6	-0.025927853
95	0xbdc64700	-0.09681511
96	0xbe9d3bbd	-0.3070964
97	0xbe0234c0	-0.12715435
98	0xbd572baf	-0.052531894
99	0xbd640033	-0.055664252
100	0x3e665030	0.22491527
101	0x3e2fc2b1	0.17164113
102	0xbd7bfe77	-0.061521973
103	0xbdbf304c	-0.09335384
104	0xbd8972ae	-0.067113265
105	0xbe153eac	-0.14574689
106	0xbdca8998	-0.09889525
107	0xbe28b234	-0.16474229
108	0x3d8fafc8	0.070159495
109	0xbc69aa17	-0.014261744
110	0x3e4640d8	0.19360673
111	0x3e23e85b	0.16006605
112	0x3dba372b	0.09092554
113	0xbe169a82	-0.14707378
114	0xbe416ebf	-0.18889903
115	0xbd4cc36e	-0.049991064
116	0x3d1d465a	0.03839717
117	0xbdf1eeb0	-0.11813104
118	0xbd580d52	-0.05274708
119	0xbe6d00c1	-0.23144819
120	0x8000135d	-6.946e-42
121	0xbb110aa7	-0.0022131593
122	0xbe8c9455	-0.27456918
123	0xbe42486a	-0.18972936
124	0x3eb1640e	0.34646648
125	0x3d6118ce	0.054955296
126	0xbce62f44	-0.02809871
127	0x3e1ddafe	0.1541557
128	0x3d8803fc	0.06641385
129	0x3d078efd	0.03309535
130	0xbd0fa877	-0.03507277
131	0x3d8b0495	0.06787983
132	0x3d3abeba	0.045592047
133	0xbd49b58f	-0.049245413
134	0x3e5f4fa1	0.2180772
135	0xbc9a7d3e	-0.018858548
136	0x3c62adbf	0.01383537
137	0xbe4a3b6c	-0.1974923
138	0xbd315b25	-0.043299813
139	0xbe0a32e7	-0.1349598
140	0xbe0b7a54	-0.13620883
141	0x3e53745f	0.20649861
142	0xbdf82b68	-0.12117654
143	0xbdcbf510	-0.09958851
