snapproject/Public/Example Assets/Food Detection [TRY_SWAPPING]/food_detection_model.onnx (onnx, 461942 bytes, 207 tensors)

backbone.0.0.weight f4 [16, 3, 3, 3]
-1.7265e-41 -6.1219e-41 2.1473e-41 4.3107e-41 -5.3146e-41 3.7053e-41 -4.7148e-41 -5.581e-42
-1.3293e-41 3.985e-42 4.4047e-41 -2.1986e-41 -2.941e-42 -2.4359e-41 6.433e-42 2.8404e-41
4.359e-41 5.1458e-41 2.7912e-41 1.2647e-41 -2.7666e-41 4.18e-41 -1.4421e-41 1.5766e-41
2.063e-42 3.9318e-41 -3.874e-41 -0.10900545 -0.25143272 -0.10908762 -0.17047432 -0.040600013
-0.06455172 -0.16427152 -0.08992952 0.022579268 0.16557373 0.124271356 -0.0295552 0.3767558
0.51803255 0.053139646 -0.2719769 -0.50675243 -0.12873971 0.13461888 0.08544497 -0.044521775
0.3568679 0.18966211 -0.07395349 -0.18297003 -0.23622009 -0.1704761 -0.064220935 0.104500875
0.023324402 -0.23443186 0.47112662 -0.15807 -0.39076895 0.6397062 -0.19378552 0.020793336
0.16977386 -0.25622898 -0.6333483 1.2227755 -0.5953687 -0.9033091 1.3968085 -0.44250196
0.002657492 0.1782079 -0.03405967 -0.20512058 0.456937 -0.17389049 -0.35477963 0.45334113
-0.12741312 -0.07953168 -0.018970571 0.085104324 -0.03296317 0.06671883 -0.097573854 -0.052007597
0.08686255 -0.082584344 -0.032229744 -0.060371168 -0.055236198 0.13867095 0.4120246 -0.61327463
0.15668073 0.4046461 -0.6268455 0.06730239 0.049061373 -0.25122368 0.31145653 0.11680375
-0.3522337 0.33259383 0.04995019 -0.2873829 -0.06691975 0.08496827 0.14175425 0.03196939
0.20950896 0.23936105 -0.007411062 0.09940681 -0.03971472 -0.005836479 -0.105719715 -0.14201887
-0.00094333355 -0.1729268 -0.20567329 0.07311494 -0.07151467 -0.19272698 0.11257226 -0.052448165
-0.12553458 0.0289211 -0.2944357 -0.34313157 -0.024397882 -0.18326674 -0.39445382 0.18955377
0.30469775 -0.0474589 0.14444895 0.7104671 0.42270014 -0.28299388 0.3671647 0.5250844
0.12745965 -0.023509646 -0.07075505 0.1914067 0.025961062 -0.11472744 0.17137493 0.066419944
-0.018687047 -0.17593576 -0.124611124 0.15098432 -0.27173737 -0.5098504 -0.20683396 0.09542472
-0.42360786 -0.4491781 0.13207953 0.053653892 -0.032752723 0.21119775 -0.098766595 -0.15242106
0.097698554 -0.1489538 -0.089418694 0.34562904 0.00406222 -0.02669536 0.88346624 -0.14620496
-0.43501413 0.242875 -0.11857186 -0.13557209 -0.029724997 -0.2373221 -0.19115302 -0.10701506
-0.2099396 -0.013097555 -0.025202187 0.011895768 0.056813274 0.20567404 0.056263734 -0.07389883
0.04420624 -0.17759685 -0.24953857 -0.078711644 -0.2995454 -0.24656299 -0.012253252 -0.037073284
-0.05215131 -0.032950018 0.08267469 0.14675 -0.06619238 0.05805032 0.17707025 -0.1858284
0.00042057133 0.14854644 -0.014536059 0.24107352 0.39627814 0.13004191 0.3508126 0.35720754
-0.063686 0.03255443 -0.009982535 0.068709545 0.38244197 -0.34923452 0.13024563 0.46645623
-0.47223976 -0.15904824 0.095075056 -0.23752028 0.014619976 0.63856906 -0.7310133 0.075357765
0.6696605 -0.6735202 -0.036988083 0.09353709 -0.08914589 0.015975347 0.19942966 -0.42195868
0.13317797 0.28262475 -0.34394756 2.0836e-41 -1.3301e-41 -5.6584e-41 6.418e-42 4.644e-42
2.1892e-41 2.9427e-41 1.296e-41 3.4856e-41 -3.5758e-41 -3.406e-41 -5.6219e-41 -2.3954e-41
00000000: 2130 0080 a7aa 0080 dc3b 0000 2a78 0000
00000010: 2694 0080 4a67 0000 6e83 0080 8f0f 0080
00000020: 0e25 0080 1c0b 0000 c97a 0000 4a3d 0080
00000030: 3308 0080 e743 0080 ef11 0000 2e4f 0000
00000040: 8379 0000 728f 0000 cf4d 0000 4123 0000
00000050: 1f4d 0080 8574 0000 3328 0080 f32b 0000
00000060: c005 0000 9a6d 0000 fe6b 0080 403e dfbd
00000070: cabb 80be 5569 dfbd d290 2ebe 334c 26bd
00000080: b133 84bd cb36 28be f82c b8bd 28f8 b83c
00000090: 298c 293e fb81 fe3d bf1d f2bc 23e6 c03e
000000a0: c89d 043f f5a8 593d 8e40 8bbe 87ba 01bf
000000b0: 58d4 03be 88d9 093e c6fd ae3d 775c 36bd
000000c0: 64b7 b63e c936 423e ed74 97bd 7f5c 3bbe
000000d0: aee3 71be 4991 2ebe 4486 83bd 8e04 d63d
000000e0: d112 bf3c e80e 70be 8237 f13e 1add 21be
000000f0: de12 c8be c9c3 233f b66f 46be c956 aa3c
00000100: 33d9 2d3e 7230 83be 1d23 22bf e883 9c3f
00000110: 156a 18bf 443f 67bf 9fca b23f 9e8f e2be
00000120: 5129 2e3b 227c 363e 2782 0bbd 210b 52be
00000130: a5f3 e93e 5910 32be ada5 b5be 541c e83e
00000140: 9678 02be 81e1 a2bd 2c68 9bbc 2d4b ae3d
00000150: 6404 07bd e2a3 883d cdd4 c7bd eb05 55bd
00000160: fee4 b13d fb21 a9bd 5603 04bd c247 77bd
00000170: 5a3f 62bd c2ff 0d3e e3f4 d23e 91ff 1cbf
00000180: ea70 203e c62d cf3e f278 20bf d6d5 893d
00000190: 94f4 483d 64a0 80be 3b77 9f3e ce36 ef3d
000001a0: fa57 b4be bd49 aa3e 9298 4c3d da23 93be
000001b0: 390d 89bd d803 ae3d 0728 113e 56f2 023d
000001c0: 8489 563e 101b 753e 7ed8 f2bb cc95 cb3d
000001d0: e7ab 22bd ef3f bfbb 9483 d8bd 656d 11be
000001e0: 0b4a 77ba b913 31be 059c 52be 49bd 953d
000001f0: 4976 92bd 395a 45be 498c e63d e3d3 56bd
00000200: 238c 00be f1eb ec3c 47c0 96be f1ae afbe
00000210: 11de c7bc 47aa 3bbe daf5 c9be 621a 423e
00000220: 5801 9c3e 4364 42bd 6dea 133e 2ce1 353f
00000230: 276c d83e 93e4 90be 03fd bb3e ee6b 063f
00000240: c884 023e 4d97 c0bc 06e8 90bd 1e00 443e
00000250: 4bac d43c 38f6 eabd e97c 2f3e 2e07 883d
00000260: 9415 99bc 8128 34be 1e34 ffbd a29b 1a3e
00000270: 2921 8bbe 8e85 02bf 48cc 53be 096e c33d
00000280: 21e3 d8be acfa e5be db3f 073e 2fc4 5b3d
00000290: b827 06bd 3944 583e 2446 cabd 4414 1cbe
000002a0: 2e16 c83d 5887 18be 2621 b7bd 4af6 b03e
000002b0: 5f1c 853b 3ab0 dabc d82a 623f c1b6 15be
000002c0: 2cba debe 39b4 783e ced5 f2bd 69d3 0abe
000002d0: d681 f3bc 9104 73be 9ebd 43be b62a dbbd
000002e0: 68fa 56be 2197 56bc d174 cebc 78e6 423c
000002f0: 09b5 683d 379c 523e cd74 663d 4558 97bd
00000300: 9a11 353d f3db 35be 0a87 7fbe 9233 a1bd
00000310: 045e 99be 027b 7cbe ddc1 48bc 28da 17bd
00000320: 9d9c 55bd 99f6 06bd 5951 a93d a245 163e
00000330: df8f 87bd 2cc6 6d3d e751 353e cd49 3ebe
00000340: 2180 dc39 8f1c 183e a728 6ebc fadb 763e
00000350: f8e4 ca3e b529 053e b69d b33e e8e3 b63e
00000360: ce6d 82bd cb57 053d c98d 23bc 97b7 8c3d
00000370: 6fcf c33e dece b2be 1c5f 053e 5ad3 ee3e
00000380: 69c9 f1be 8bdd 22be b6b6 c23d 8438 73be
00000390: a088 6f3c 4379 233f b023 3bbf 2c55 9a3d
000003a0: df6e 2b3f d26b 2cbf d180 17bd 6090 bf3d
000003b0: 1f92 b6bd bbde 823c 4a37 4c3e f80a d8be
000003c0: ce5f 083e 31b4 903e e519 b0be 153a 0000
000003d0: 1425 0080 bc9d 0080 e411 0000 f20c 0000
000003e0: 073d 0000 0852 0000 2124 0000 2a61 0000
000003f0: ae63 0080 f25e 0080 b79c 0080 c642 0080

backbone.0.1.bias f4 [16]
-6.2044e-41 0.4580061 0.32785574 0.28792846 0.8411255 0.60123616 0.366264 0.49653587
0.3598686 8.122e-42 0.10837498 0.8305192 0.4190124 -0.030081274 3.1566e-41 5.1032e-41
00000000: f4ac 0080 c77f ea3e b5dc a73e 5c6b 933e
00000010: 0054 573f 9dea 193f f486 bb3e f339 fe3e
00000020: b240 b83e a416 0000 b4f3 dd3d e89c 543f
00000030: cb88 d63e 016d f6bc fe57 0000 428e 0000

backbone.0.1.running_mean f4 [16]
1.2832134e-38 -44.65902 43.931576 -36.889393 -190.66522 -4.5536957 -33.442055 138.35852
-38.17145 -4.036164e-39 -43.22336 120.237595 -18.828245 187.6174 5.294208e-39 9.448981e-39
00000000: c5ba 8b00 d6a2 32c2 efb9 2f42 bd8e 13c2
00000010: 4caa 3ec3 e0b7 91c0 aac4 05c2 c85b 0a43
00000020: 91af 18c2 2ff3 2b80 b8e4 2cc2 a679 f042
00000030: 3fa0 96c1 0e9e 3b43 19a6 3900 eae3 6600

backbone.0.1.running_var f4 [16]
6e-45 3374.056 7355.828 3031.1387 11864.159 15221.291 3221.4377 7302.2153
4462.956 6e-45 5973.159 6283.054 2003.325 15643.746 6e-45 6e-45
00000000: 0400 0000 e5e0 5245 a0de e545 3872 3d45
00000010: a360 3946 2ad5 6d46 0157 4945 b931 e445
00000020: a677 8b45 0400 0000 46a9 ba45 6f58 c445
00000030: 666a fa44 fc6e 7446 0400 0000 0400 0000

backbone.0.1.weight f4 [16]
-3.5021e-41 0.18516204 0.14017561 0.19728543 0.14606759 0.18512656 0.14538103 0.26724568
0.0854865 -4.8694e-41 0.3718819 0.100076236 0.062080324 0.32416135 2.1366e-41 3.8226e-41
00000000: a061 0080 1e9b 3d3e 328a 0f3e 3105 4a3e
00000010: be92 153e d191 3d3e c4de 143e 6dd4 883e
00000020: 8c13 af3d bd87 0080 4e67 be3e c5f4 cc3d
00000030: f047 7e3d 7af8 a53e 8f3b 0000 8f6a 0000

backbone.1.conv.0.0.weight f4 [16, 1, 3, 3]
5.201e-41 -1.8525e-41 -2.414e-41 6.0533e-41 5.367e-42 2.4076e-41 -2.6479e-41 6.543e-42
-5.5483e-41 0.008314109 -0.1420432 -0.010627406 -0.012059051 0.25341377 0.7546482 0.009581106
-0.09026502 -0.75408655 -0.0047171745 -0.057187196 -0.18990867 -0.012653381 0.051467247 0.9220096
-0.006271383 -0.06926066 -0.16157122 -0.022011396 -0.060764644 -0.001264636 0.017675716 0.7768629
-0.18845378 0.031693604 -0.08442994 -0.28411403 0.531694 1.7714717 0.4148281 0.2081657
0.35481963 0.17342262 -0.79052824 -2.0970948 -0.70921636 -0.26176614 0.059964355 0.029627444
-0.07549016 0.43488404 -1.4873729 -0.1008552 1.4514114 0.44577828 -0.0060312725 0.04098658
-0.010506765 -0.057968535 -0.02210735 -0.77611196 -0.052951735 -0.08229381 0.9925108 -0.43278325
-0.34311205 0.55507916 -2.1954224 -0.36274928 2.5079055 -0.38634333 -0.10138932 0.631276
-0.00024164602 -0.046860486 0.044394825 0.006301175 -0.71189445 0.12659544 0.07776723 0.20570187
0.07202263 4.4386e-41 2.2541e-41 -7.061e-42 2.4754e-41 1.0874e-41 -3.3015e-41 -9.26e-43
-1.5235e-41 7.828e-42 0.05135537 -0.105029084 -0.47167626 -0.1154204 0.18215978 0.32215783
-0.42148602 0.3676774 0.44462937 0.110006355 1.4777863 0.9207839 0.037272286 0.082803585
-0.13452244 -0.24882907 -1.4951437 -0.93555653 -0.0036933192 0.0513334 0.022889905 0.02727355
-0.101738736 -0.7455105 -0.026064549 0.015174637 0.73213345 -0.16557114 0.10013098 -0.18848106
0.10948045 0.10990486 -0.2392778 0.20138705 0.16528918 0.38073906 -2.1503e-41 5.3318e-41
-1.0325e-41 -3.9861e-41 1.1243e-41 4.3977e-41 -6.2295e-41 -2.8539e-41 6.99e-42 -3.1456e-41
-2.5036e-41 -3.9983e-41 3.7785e-41 -7.15e-43 -6.705e-42 -1.4812e-41 1.2348e-41 6.1506e-41
00000000: fc90 0000 a433 0080 4b43 0080 bea8 0000
00000010: f60e 0000 1d43 0000 d049 0080 3d12 0000
00000020: aa9a 0080 e737 083c c673 11be 921e 2ebc
00000030: 5393 45bc 73bf 813e a030 413f 12fa 1c3c
00000040: dedc b8bd d10b 41bf 8792 9abb 1f3d 6abd
00000050: 6b77 42be 2050 4fbc 52cf 523d d208 6c3f
00000060: 2c80 cdbb 88d8 8dbd ed72 25be 3e51 b4bc
00000070: 59e4 78bd 25c2 a5ba aacc 903c 7de0 463f
00000080: 07fa 40be 27d1 013d 9be9 acbd 6577 91be
00000090: 191d 083f 96bf e23f 5964 d43e 6429 553e
000000a0: ebaa b53e b395 313e 0f60 4abf cd36 06c0
000000b0: 348f 35bf 3606 86be 2f9d 753d 41b5 f23c
000000c0: 969a 9abd 1fa9 de3e 3c62 bebf 2c8d cebd
000000d0: d9c7 b93f 0d3d e43e fba1 c5bb 8be1 273d
000000e0: 9124 2cbc 6a70 6dbd 791a b5bc 46af 46bf
000000f0: ebe3 58bd a889 a8bd 3015 7e3f c495 ddbe
00000100: 62ac afbe ab19 0e3f cd81 0cc0 46ba b9be
00000110: 8681 2040 cbce c5be 34a5 cfbd 4e9b 213f
00000120: 5c62 7db9 c8f0 3fbd 59d7 353d 167a ce3b
00000130: b73e 36bf 3ca2 013e 6d44 9f3d 83a3 523e
00000140: 9a80 933d bb7b 0000 d63e 0000 af13 0080
00000150: 0145 0000 501e 0000 085c 0080 9502 0080
00000160: 782a 0080 d215 0000 025a 523d 7d19 d7bd
00000170: 8d7f f1be 8861 ecbd 1888 3a3e dff1 a43e
00000180: 04cd d7be 3640 bc3e 76a6 e33e 034b e13d
00000190: 1a28 bd3f 7eb8 6b3f d3aa 183d ed94 a93d
000001a0: 40c0 09be 0ccd 7ebe de60 bfbf a280 6fbf
000001b0: 9d0b 72bb f942 523d 9c83 bb3c c86c df3c
000001c0: 665c d0bd c7d9 3ebf 5285 d5bc 0a9f 783c
000001d0: 196d 3b3f 7b8b 29be 7911 cd3d 2e01 41be
000001e0: 4937 e03d cd15 e13d 3d05 75be 6838 4e3e
000001f0: 9141 293e 3bf0 c23e f13b 0080 a194 0000
00000200: c81c 0080 1e6f 0080 571f 0000 977a 0000
00000210: a7ad 0080 8e4f 0080 7c13 0000 b057 0080
00000220: ca45 0080 756f 0080 5469 0000 fe01 0080
00000230: b112 0080 4a29 0080 6c22 0000 74ab 0000

backbone.1.conv.0.1.bias f4 [16]
-3.8152e-41 0.51864654 1.0421212 0.31051192 0.262186 1.1468407 0.90193605 0.84895414
0.13666 -4.7902e-41 0.88335925 0.21338107 0.9301478 0.051391315 -4.3737e-41 -5.539e-41
00000000: 5a6a 0080 05c6 043f 3a64 853f 6bfb 9e3e
00000010: 3e3d 863e adcb 923f 48e5 663f 0f55 593f
00000020: 99f0 0b3e 8885 0080 d523 623f 9180 5a3e
00000030: 2b1e 6e3f b37f 523d ec79 0080 689a 0080

backbone.1.conv.0.1.running_mean f4 [16]
6e-45 0.010992336 0.14988527 0.057182536 -0.11104497 0.30519977 0.0071065123 -0.069512375
-0.08440246 6e-45 0.050950628 -0.1496678 -0.015842732 0.057332985 -6e-45 -4e-45
00000000: 0400 0000 3319 343c 867b 193e 3c38 6a3d
00000010: 8c6b e3bd 2543 9c3e bfdd e83b 815c 8ebd
00000020: 32db acbd 0400 0000 9bb1 503d 8442 19be
00000030: 9ec8 81bc fed5 6a3d 0400 0080 0300 0080

backbone.1.conv.0.1.running_var f4 [16]
6e-45 0.018795729 0.008720939 0.014812022 0.17127883 0.04368823 0.010029947 0.28593197
0.0033523266 6e-45 0.011188376 0.09121515 0.0036940074 0.010407499 6e-45 6e-45
00000000: 0400 0000 80f9 993c 45e2 0e3c 20ae 723c
00000010: b863 2f3e 6ef2 323d a654 243c ad65 923e
00000020: b5b2 5b3b 0400 0000 734f 373c 02cf ba3d
00000030: 2917 723b 3784 2a3c 0400 0000 0400 0000

backbone.1.conv.0.1.weight f4 [16]
-5.1967e-41 0.54342437 0.5359281 0.45432422 0.9499381 0.44505283 0.45748848 0.5927152
0.42253885 2.1396e-41 0.3516855 0.83515346 0.6345234 0.3122413 1.094e-41 -1.6999e-41
00000000: dd90 0080 dc1d 0b3f 9532 093f 2f9d e83e
00000010: 252f 733f f7dd e33e ee3b ea3e 2fbc 173f
00000020: 0357 d83e a53b 0000 1f10 b43e 9ecc 553f
00000030: 2070 223f 17de 9f3e 7f1e 0000 632f 0080

backbone.1.conv.1.weight f4 [8, 16, 1, 1]
-5.1562e-41 0.00030915972 -0.09905183 0.111379385 -0.11502228 0.72505116 0.2864195 -0.04451179
-0.03178985 -4.1017e-41 0.14479591 0.17408049 0.07575491 -0.12884939 5.7931e-41 -2.2139e-41
-9.892e-42 0.014581685 -0.4758134 0.03474713 0.03264235 -0.24917959 0.021941938 0.065651014
-0.084938176 -3.6849e-41 0.0676756 -0.040703543 -0.32845658 0.29890543 2.8023e-41 2.3648e-41
-3.7874e-41 0.49924004 0.102082305 0.36719412 -0.26288864 -0.19025421 -0.41354164 0.11626595
-0.17343114 -4.1477e-41 0.21496978 0.25988075 0.030186592 0.05394381 8.688e-42 -1.9789e-41
-8.439e-42 -0.05254168 -0.19846705 -0.023498276 0.40235674 -0.4156705 0.09303157 0.0194801
-0.18697973 3.7053e-41 0.38895136 -0.3580377 0.39350563 0.20281297 1.2188e-41 2.0896e-41
3.2289e-41 -0.34929 0.2821077 0.10460468 0.038347337 -0.54890716 0.19815885 -0.17482094
0.12467487 -5.5725e-41 0.36005324 -0.09838532 -0.2706598 0.044580042 -1.0367e-41 1.4293e-41
2.9961e-41 -0.08311232 -0.034084026 -0.5149719 -0.30724427 -0.25097495 0.2665133 0.52849275
0.3253914 2.7722e-41 0.17961678 0.42499658 -0.040868867 0.07291112 -4.6533e-41 -1.5512e-41
1.0424e-41 0.31086445 -0.035103865 -0.3319728 -0.33892572 0.030084534 0.117217146 -0.860918
0.0829875 2.4056e-41 0.078690335 0.20804538 -0.12449357 0.111120015 3.8192e-41 3.499e-42
9.714e-42 0.13955434 0.20995983 -0.097009465 0.44104677 0.59801954 -0.054281417 0.18767865
0.04674923 -5.91e-42 0.080955 -0.4730644 -0.2065967 -0.18554 -6.1252e-41 5.7725e-41
00000000: bc8f 0080 b716 a239 b0db cabd e01a e43d
00000010: cd90 ebbd f49c 393f 94a5 923e ff51 36bd
00000020: 1336 02bd 5772 0080 6145 143e 2842 323e
00000030: 6425 9b3d 18f1 03be 7da1 0000 b73d 0080
00000040: 931b 0080 05e8 6e3c d09d f3be 0253 0e3d
00000050: fcb3 053d ef28 7fbe 94bf b33c 0a74 863d
00000060: 11f4 adbd b866 0080 8199 8a3d c2b8 26bd
00000070: 762b a8be 220a 993e 1e4e 0000 ec41 0000
00000080: 9469 0080 649c ff3e 8710 d13d de00 bc3e
00000090: 5799 86be 00d2 42be bbbb d3be d81c ee3d
000000a0: ef97 31be 9f73 0080 0a21 5c3e 170f 853e
000000b0: df49 f73c 2ff4 5c3d 3818 0000 2a37 0080
000000c0: 8617 0080 f235 57bd f23a 4bbe 757f c0bc
000000d0: b401 ce3e c4d2 d4be 5687 be3d bb94 9f3c
000000e0: 9d77 3fbe 4a67 0000 a224 c73e b850 b7be
000000f0: 9279 c93e 34ae 4f3e fa21 0000 403a 0000
00000100: 025a 0000 24d6 b2be 6c70 903e fa3a d63d
00000110: 1912 1d3d 2e85 0cbf 27ea 4a3e 4304 33be
00000120: 8a55 ff3d 579b 0080 e658 b83e 3e7e c9bd
00000130: ec93 8abe 9099 363d e61c 0080 d827 0000
00000140: 8553 0000 cb36 aabd b19b 0bbd 33d5 03bf
00000150: 1f4f 9dbe ca7f 80be 6e74 883e 4d4b 073f
00000160: b499 a63e 474d 0000 76ed 373e 2799 d93e
00000170: 1d66 27bd 6d52 953d b781 0080 3e2b 0080
00000180: 0f1d 0000 a029 9f3e 12c9 0fbd 57f8 a9be
00000190: ac87 adbe d773 f63c 8b0f f03d 1f65 5cbf
000001a0: 5af5 a93d 0f43 0000 6628 a13d d909 553e
000001b0: 7cf6 febd e492 e33d 776a 0000 c109 0000
000001c0: 141b 0000 55e7 0e3e b6ff 563e e6ac c6bd
000001d0: e2d0 e13e cf17 193f 3156 5ebd d52e 403e
000001e0: 1f7c 3f3d 7a10 0080 bccb a53d 7f35 f2be
000001f0: 168e 53be 33fe 3dbe bfaa 0080 eaa0 0000

backbone.1.conv.2.bias f4 [8]
5.2707264e-06 2.2076913e-06 1.3308146e-06 2.5420782e-06 1.9154738e-06 5.1268444e-06 7.651308e-08 3.5817854e-06
00000000: 32db b036 d927 1436 719e b235 9298 2a36
00000010: 978b 0036 4207 ac36 834f a433 9b5e 7036

backbone.1.conv.2.running_mean f4 [8]
1.1860452 -0.92910355 0.19496484 0.13565168 -0.39915493 0.3640478 -0.68805 0.9525147
00000000: 54d0 973f bbd9 6dbf dda4 473e 46e8 0a3e
00000010: 095e ccbe 7964 ba3e 0b24 30bf 01d8 733f

backbone.1.conv.2.running_var f4 [8]
0.1274532 0.06652955 0.17248659 0.16544582 0.15677953 0.22277968 0.24512593 0.14141282
00000000: 1783 023e a540 883d 53a0 303e a16a 293e
00000010: d08a 203e 5b20 643e 4b02 7b3e 86ce 103e

backbone.1.conv.2.weight f4 [8]
0.5724666 0.44246706 0.6326611 0.5295815 0.5401396 0.563323 0.52306366 0.4767484
00000000: 2c8d 123f 0b8b e23e 14f6 213f a792 073f
00000010: 9746 0a3f f035 103f 80e7 053f 5e18 f43e

backbone.10.conv.0.0.weight f4 [144, 24, 1, 1]
-2.1405e-41 -1.7313e-41 2.7266e-41 9.439e-42 -4.16e-43 2.6452e-41 2.9335e-41 1.1676e-41
-1.4566e-41 -1.1173e-41 -2.788e-41 -2.7756e-41 -3.6871e-41 2.4143e-41 -1.7271e-41 -5.2022e-41
-5.1646e-41 2.5934e-41 1.1649e-41 1.5887e-41 -2.6877e-41 2.2638e-41 1.68e-41 5.5264e-41
-0.11997791 0.025264088 -0.06654994 -0.16407827 -0.13956931 -0.075446665 0.13831675 0.039994042
0.001877988 -0.09350324 0.05712487 -0.08897603 0.1350929 -0.061775338 0.13243933 0.04945175
0.034571655 -0.034127764 0.014439285 -0.08121839 0.13625826 -0.15038314 0.07376353 0.06036339
-0.041080765 -0.022329617 -0.0749485 -0.012503261 0.03456514 0.07187548 -0.05656446 -0.040708385
-0.024199307 0.1287166 -0.18879606 -0.04099537 -0.13551812 -0.16431391 0.120446116 -0.038080666
0.08129496 -0.08501259 0.28014666 -0.004913164 -0.018422624 0.122162886 -0.1772407 -0.052139547
3.7406e-41 3.019e-41 -2.2802e-41 -2.8116e-41 3.8075e-41 2.7018e-41 4.0884e-41 5.5155e-41
-3.3902e-41 3.4018e-41 -1.673e-41 5.7705e-41 2.073e-41 4.6066e-41 -6.2988e-41 -5.2287e-41
5.4222e-41 -5.4233e-41 7.616e-42 -3.7256e-41 2.9448e-41 -1.7136e-41 4.6827e-41 -5.1313e-41
-0.028980248 -0.1571892 -0.15892239 -0.06128208 0.056366168 0.14403991 0.012097188 -0.07296463
-0.03487643 -0.09142244 -0.059878923 -0.09821018 -0.028583784 0.040048696 0.036550038 -0.15252222
0.06530681 0.06394437 -0.017436512 -0.0036293154 0.011909077 0.06400133 0.0062679 0.08922379
0.121547416 -0.057183854 0.07808432 -0.12210047 -0.024879973 -0.07097061 0.03417395 0.17713
-0.08628321 0.05404851 -0.039267905 -0.16339661 -0.105649754 -0.014014877 0.046529192 0.08010492
-0.12848146 -0.0040967856 0.0069949846 -0.02395106 0.0054370384 0.04349963 0.080387756 -0.047864266
-0.06743868 -0.001939953 -0.028048633 -0.13792652 -0.060400516 -0.06711584 -0.1699943 0.2060221
-0.13712552 0.025849283 -0.008196472 0.10955262 -0.01022832 -0.0030312687 -0.03683781 0.13646172
-0.045648273 0.04324402 -0.060711376 -0.021676963 -0.1404294 0.0062849573 -0.025672566 0.022168912
0.064128526 -0.10932478 0.050358165 0.05361831 -0.036835663 0.09624226 -0.19413656 -0.07750467
0.08864813 0.21931188 -0.18139113 0.07782372 -0.053592313 -0.06345515 0.095946945 -0.025619298
0.032186914 0.08293941 -0.03171003 -0.018594723 0.18310238 -0.018059064 0.13050081 -0.0065632584
-0.00271716 0.08483428 0.1066012 -0.075418584 0.07856242 -0.078697234 -0.06200265 -0.09611043
-0.14634521 -0.03050237 -0.030520886 0.12848209 -0.08945788 -0.27120754 -0.05947549 0.15045993
0.076674104 -0.021852428 -0.09648473 0.02412064 -0.18506151 0.024403775 0.10130883 -3.2442545e-05
-0.21864988 0.21003518 -0.156338 -0.10209694 0.026768833 -0.08697379 -0.054920733 0.116599135
0.11432711 -0.079894744 0.06651304 0.10923251 -0.123856224 -0.10078872 -0.1680902 0.04094218
0.07433298 0.030211126 -0.13941331 -0.04584421 0.07131525 -0.08968934 -0.17670384 -0.08146428
0.0040813624 -0.088655084 0.065669574 0.052311942 0.07878023 0.029714776 -0.061099548 0.027822884
-0.07912946 0.032358386 -0.020235535 -0.07334095 -0.144701 -0.100502916 -0.003234712 0.06623587
00000000: ab3b 0080 4330 0080 024c 0000 501a 0000
00000010: 2901 0080 bd49 0000 c651 0000 8c20 0000
00000020: 9b28 0080 251f 0080 b84d 0080 5f4d 0080
00000030: c866 0080 4d43 0000 2530 0080 0491 0080
00000040: f88f 0080 4b48 0000 7920 0000 492c 0000
00000050: ec4a 0080 1b3f 0000 d52e 0000 0e9a 0000
00000060: fab6 f5bd a2f6 ce3c 564b 88bd 2204 28be
00000070: 42eb 0ebe c883 9abd e8a2 0d3e cbd0 233d
00000080: d226 f63a a07e bfbd c5fb 693d 1139 b6bd
00000090: cb55 0a3e 2308 7dbd 2d9e 073e eb8d 4a3d
000000a0: 029b 0d3d 8ec9 0bbd c092 6c3c d455 a6bd
000000b0: 4987 0b3e 0afe 19be 5511 973d 9a3f 773d
000000c0: 4e44 28bd 9aec b6bc 997e 99bd 7ada 4cbc
000000d0: 2d94 0d3d 7433 933d 23b0 67bd d6bd 26bd
000000e0: a03d c6bc 49ce 033e c153 41be c3ea 27bd
000000f0: 43c5 0abe e841 28be 74ac f63d 79fa 1bbd
00000100: f97d a63d 151b aebd 626f 8f3e 9bfe a0bb
00000110: 0beb 96bc 8930 fa3d 967e 35be 4790 55bd
00000120: 4668 0000 2854 0000 903f 0080 604e 0080
00000130: 236a 0000 514b 0000 f871 0000 c099 0000
00000140: 815e 0080 d45e 0000 a32e 0080 dca0 0000
00000150: c939 0000 6a80 0000 96af 0080 c191 0080
00000160: 2697 0000 2e97 0080 3b15 0000 db67 0080
00000170: 1752 0000 c52f 0080 8982 0000 0a8f 0080
00000180: fc67 edbc 35f6 20be 8dbc 22be eb02 7bbd
00000190: 36e0 663d 337f 133e 4933 463c 7b6e 95bd
000001a0: 96da 0ebd b03b bbbd 9a43 75bd 6b22 c9bd
000001b0: 8a28 eabc 1a0a 243d 7eb5 153d c92e 1cbe
000001c0: 94bf 853d 44f5 823d 04d7 8ebc cfd9 6dbb
000001d0: 4a1e 433c 2113 833d f562 cd3b f6ba b63d
000001e0: daed f83d 9e39 6abd acea 9f3d d00f fabd
000001f0: 16d1 cbbc 0a59 91bd fcf9 0b3d 9161 353e
00000200: 40b5 b0bd f861 5d3d 62d7 20bd 7151 27be
00000210: e65e d8bd a89e 65bc 6595 3e3d 0c0e a43d
00000220: a590 03be 543e 86bb 2f36 e53b 0335 c4bc
00000230: 2f29 b23b ab2c 323d 56a2 a43d 520d 44bd
00000240: 4a1d 8abd 0546 feba 3fc6 e5bc 9c3c 0dbe
00000250: 8866 77bd 0874 89bd fc12 2ebe 75f7 523e
00000260: a26a 0cbe e0c1 d33c 7f4a 06bc 205d e03d
00000270: af94 27bc 40a8 46bb 3ee3 16bd 9fbc 0b3e
00000280: aff9 3abd a420 313d 7eac 78bd e393 b1bc
00000290: bacc 0fbe 0bf2 cd3b 464f d2bc 949b b53c
000002a0: d155 833d ace5 dfbd 5d44 4e3d df9e 5b3d
000002b0: fee0 16bd a91a c53d bccb 46be c5ba 9ebd
000002c0: 278d b53d 4b93 603e 99be 39be 0b62 9f3d
000002d0: 9d83 5bbd c6f4 81bd d57f c43d 90df d1bc
000002e0: 6dd6 033d 23dc a93d 60e2 01bd f653 98bc
000002f0: 317f 3b3e 9af0 93bc 01a2 053e 9a10 d7bb
00000300: 6112 32bb 98bd ad3d bb51 da3d 0f75 9abd
00000310: 56e5 a03d 042c a1bd 7ef6 7dbd 8cd5 c4bd
00000320: 85db 15be 1be0 f9bc f006 fabc cf90 033e
00000330: b135 b7bd b7db 8abe 929c 73bd 2b12 1a3e
00000340: 5007 9d3d dd03 b3bc c999 c5bd a698 c53c
00000350: c480 3dbe 6dea c73c 017b cf3d eb12 08b8
00000360: c1e5 5fbe 7613 573e 1217 20be 3318 d1bd
00000370: 504a db3c 501f b2bd 90f4 60bd 87cb ee3d
00000380: 5524 ea3d db9f a3bd fd37 883d 4bb5 df3d
00000390: 55a8 fdbd 516a cebd d61f 2cbe fdb2 273d
000003a0: e43b 983d 537d f73c 5dc2 0ebe 23c7 3bbd
000003b0: bb0d 923d 0baf b7bd daf1 34be bfd6 a6bd
000003c0: f3bc 853b cc90 b5bd c57d 863d 0c45 563d
000003d0: 8757 a13d 676c f33c 8543 7abd d1ec e33c
000003e0: a00e a2bd 3a8a 043d fec4 a5bc c833 96bd
000003f0: 802c 14be 79d4 cdbd 76fd 53bb aca6 873d

backbone.10.conv.0.1.bias f4 [144]
-7.78e-42 0.014912079 0.12724629 5.7705e-41 0.12590462 0.09163988 -0.0039234823 0.07681213
0.04436292 -0.051161632 0.099768676 0.014121853 0.12544872 0.11270133 0.2001264 -0.106126115
1.0929e-41 0.06350607 -0.07091091 0.044130985 0.0065082028 -0.049068317 -0.06126836 -0.044666726
-0.14658211 0.062094733 -0.03419276 0.10351521 0.10469171 0.10222355 -0.035708774 -0.022630868
-0.053416252 0.013881898 0.083682574 0.08146465 -0.015153079 -0.0691478 -0.0388275 3.7663e-41
0.11787452 -0.057001557 0.12236034 0.15215759 0.005307289 -0.0071050343 0.005063835 -0.07079104
-0.08550461 0.017622953 -0.1091845 -0.054262064 -1.5533e-41 -0.113775246 -5.8451e-41 0.12609543
-0.053940322 0.08428288 -0.12235463 0.022973416 -2.1042e-41 -0.0040654233 -0.047872365 0.0015924617
0.004666143 -0.054137316 0.013954875 0.0917431 -0.016615089 -0.0716887 0.07758126 0.037742287
-0.017115124 2.1541e-41 -0.04328063 -0.032943767 -0.034355924 -0.0098036 -0.12364177 -0.060541566
-0.004179323 -0.01266373 -1.098e-41 -0.049404047 -4.669e-41 0.038452115 -0.008529854 0.14681756
0.032191116 0.020806404 0.011516354 -6.997e-42 -0.022906646 0.06854906 -0.08271131 0.028453423
3.3195e-41 -1.7774e-41 0.026470486 -0.05904227 0.13022938 0.09414375 -0.1644567 0.10620599
-0.05084828 -5.078e-41 0.092025936 0.12888403 -0.07859336 -0.026021177 0.05689107 -1.6547e-41
0.031937916 0.07979129 -0.12617572 -0.045787275 0.13186772 0.11645328 -0.106277086 -0.012225384
-5.5489e-41 0.109003015 -0.075638145 -0.013284852 0.05579013 0.14205378 -0.018254975 0.07636061
0.04076239 0.13243257 -1.9634e-41 0.08462287 -0.11994919 -0.09346974 0.0029607194 0.011784109
-3.2224e-41 0.02742814 -0.009832852 0.077826165 0.1393461 -0.102971405 0.07665264 0.18224168
00000000: b015 0080 cb51 743c da4c 023e dca0 0000
00000010: 24ed 003e b0ad bb3d 8e90 80bb ae4f 9d3d
00000020: e5b5 353d dc8e 51bd 8553 cc3d 585f 673c
00000030: a175 003e f4cf e63d efed 4c3e a658 d9bd
00000040: 771e 0000 780f 823d bd39 91bd b1c2 343d
00000050: c342 d53b dcfb 48bd 88f4 7abd 75f4 36bd
00000060: 9f19 16be 0c57 7e3d b50d 0cbd c8ff d33d
00000070: 9b68 d63d 955a d13d 5d43 12bd 5f64 b9bc
00000080: 00cb 5abd e670 633c c561 ab3d f0d6 a63d
00000090: 9f44 78bc 5d9d 8dbd 9609 1fbd fd68 0000
000000a0: 3268 f13d 777a 69bd 0f98 fa3d 33cf 1b3e
000000b0: c4e8 ad3b 59d1 e8bb 87ee a53b e5fa 90bd
000000c0: 0a1d afbd 035e 903c 209c dfbd e641 5ebd
000000d0: 4d2b 0080 ff02 e9bd f0a2 0080 291f 013e
000000e0: 87f0 5cbd 819c ac3d 1095 fabd bf32 bc3c
000000f0: a83a 0080 3e37 85bb d015 44bd 26ba d03a
00000100: 72e6 983b 17bf 5dbd fda2 643c cee3 bb3d
00000110: 5e1c 88bc 86d1 92bd ece2 9e3d a897 1a3d
00000120: 0435 8cbc 0c3c 0000 0847 31bd 0bf0 06bd
00000130: ccb8 0cbd 479f 20bc e537 fdbd 6ffa 77bd
00000140: b4f2 88bb 897b 4fbc 9c1e 0080 e65b 4abd
00000150: 2782 0080 f77f 1d3d cdc0 0bbc 5857 163e
00000160: d5da 033d 3172 aa3c 17af 3c3c 8113 0080
00000170: b8a6 bbbc 7363 8c3d 8c64 a9bd 2717 e93c
00000180: 895c 0000 8c31 0080 a2d8 d83c 4fd6 71bd
00000190: da5a 053e 70ce c03d 5667 28be 8782 d93d
000001a0: 4946 50bd 8e8d 0080 1878 bc3d 2dfa 033e
000001b0: 8ef5 a0bd 5d2a d5bc 9c06 693d 202e 0080
000001c0: 55d1 023d 9e69 a33d 3534 01be 708b 3bbd
000001d0: 5508 073e 0f7f ee3d cda7 d9bd fa4c 48bc
000001e0: ae9a 0080 f93c df3d 2ce8 9abd b5a8 59bc
000001f0: 3184 643d 8c76 113e 758b 95bc f462 9c3d
00000200: 77f6 263d 679c 073e bb36 0080 c14e ad3d
00000210: eca7 f5bd 106d bfbd a108 423b 2312 413c
00000220: d459 0080 fbb0 e03c f819 21bc 5363 9f3d
00000230: beb0 0e3e ace2 d2bd 0ffc 9c3d 909d 3a3e

backbone.10.conv.0.1.running_mean f4 [144]
-6e-45 4.3009842e-07 -1.061717e-06 6e-45 -1.0012423e-06 -7.254933e-07 3.834993e-07 -8.6530015e-08
5.873536e-07 1.2041445e-06 -6.3202174e-07 -1.2284875e-06 -2.0780826e-07 1.2056848e-06 -1.0883258e-06 4.6194214e-07
6e-45 -6.849144e-08 1.0274078e-06 2.5013938e-07 5.525201e-07 2.1379898e-07 5.647873e-07 -1.294646e-06
6.035852e-07 7.740298e-07 2.3601388e-07 -7.6104406e-08 1.5024733e-08 2.6236665e-07 4.8337034e-07 8.6373876e-07
5.144786e-07 9.966051e-07 -6.657014e-08 -6.4692614e-07 5.656098e-07 -6.749433e-07 8.204678e-07 -6e-45
-9.135133e-07 1.005286e-06 8.929992e-07 -3.263019e-07 1.221598e-07 -3.4096837e-07 8.331709e-07 -6.4864906e-07
-8.673254e-08 5.420588e-07 -3.9184775e-07 -6.4419237e-07 -6e-45 -6.817051e-07 6e-45 -7.0164396e-07
1.9209988e-08 -9.5358075e-07 2.2490485e-07 3.8372175e-08 6e-45 -1.5040372e-07 -1.6142313e-07 1.040522e-06
4.6270614e-07 3.5245918e-07 -7.9585696e-08 6.153672e-07 7.830266e-07 8.0283314e-08 -3.8068583e-07 3.9240922e-07
-9.128546e-07 6e-45 2.3661114e-08 -1.2927818e-07 6.6193434e-07 -5.570837e-07 1.063957e-06 3.392171e-07
1.1445504e-06 1.0929934e-06 6e-45 1.0324671e-07 -6e-45 3.1343234e-07 -3.091391e-07 -4.9538886e-07
-9.891323e-08 -5.486176e-08 9.659851e-07 6e-45 7.057711e-07 3.804596e-07 3.773056e-07 -8.872858e-07
6e-45 -6e-45 -1.3008106e-07 4.8856793e-07 -9.852041e-08 6.1449083e-07 7.728942e-07 1.2421896e-07
-6.010856e-07 -6e-45 -1.2722626e-06 5.48645e-07 7.853788e-07 -7.9567975e-08 -4.720861e-07 -3e-45
-5.7811593e-07 -4.8543626e-07 -3.8272051e-07 1.6765432e-06 1.1446085e-06 6.0638956e-07 -7.161359e-07 3.966e-07
6e-45 3.976556e-07 5.610232e-07 7.2585067e-07 -6.233878e-07 3.2591507e-07 1.5359686e-06 -3.4280183e-07
1.0003168e-06 -8.7377873e-07 6e-45 1.3924351e-06 2.5798332e-07 1.2852875e-06 1.0015043e-06 -5.180758e-07
-6e-45 -6.8032335e-07 -6.849499e-07 -6.3074765e-07 -2.7967243e-07 8.247517e-07 8.985972e-07 -5.3504647e-07
00000000: 0400 0080 47e8 e634 5180 8eb5 0400 0000
00000010: 6c62 86b5 85bf 42b5 bee3 cd34 61d2 b9b3
00000020: a2aa 1d35 179e a135 34a8 29b5 82e2 a4b5
00000030: e621 5fb4 04d3 a135 9712 92b5 d800 f834
00000040: 0400 0000 9115 93b3 77e5 8935 e54a 8634
00000050: e450 1435 9e90 6534 e39b 1735 b3c3 adb5
00000060: 0f06 2235 ecc6 4f35 006b 7d34 d76e a3b3
00000070: bd0f 8132 66db 8c34 f5c0 0135 addb 6735
00000080: b31a 0a35 17c3 8535 52f5 8eb3 6da8 2db5
00000090: 69d4 1735 c02d 35b5 1e3e 5c35 0400 0080
000000a0: 2838 75b5 5ded 8635 70b6 6f35 972e afb4
000000b0: 082b 0334 560e b7b4 11a7 5f35 d31e 2eb5
000000c0: b841 bab3 ff81 1135 255f d2b4 90ec 2cb5
000000d0: 0400 0080 6bfe 36b5 0400 0000 9b58 3cb5
000000e0: 3603 a532 92f9 7fb5 607d 7134 a7ce 2433
000000f0: 0400 0000 a97e 21b4 a753 2db4 10a8 8b35
00000100: d969 f834 9f39 bd34 b3e8 aab3 b62f 2535
00000110: 2e31 5235 3868 ac33 1061 ccb4 50ac d234
00000120: e40a 75b5 0400 0000 573f cb32 b7cf 0ab4
00000130: c8af 3135 808a 15b5 49cd 8e35 a51d b634
00000140: 749e 9935 f8b2 9235 0400 0000 7bb8 dd33
00000150: 0400 0080 d045 a834 c1f7 a5b4 ddfa 04b5
00000160: 206a d4b3 25a1 6bb3 ffa6 8135 0400 0000
00000170: 3874 3d35 f841 cc34 7d90 ca34 d12d 6eb5
00000180: 0400 0000 0400 0080 69ac 0bb4 2226 0335
00000190: 2b92 d3b3 7df3 2435 e378 4f35 0c61 0534
000001a0: 4a5a 21b5 0400 0080 9cc2 aab5 9946 1335
000001b0: d2d2 5235 f5de aab3 0573 fdb4 0200 0080
000001c0: d32f 1bb5 ed4e 02b5 b578 cdb4 9605 e135
000001d0: 73a0 9935 c6c6 2235 7c3c 40b5 4aec d434
000001e0: 0400 0000 5f7d d534 3999 1635 14d8 4235
000001f0: e256 27b5 6df9 ae34 7b27 ce35 530a b8b4
00000200: a042 8635 9e8d 6ab5 0400 0000 b5e3 ba35
00000210: f580 8a34 2482 ac35 6d6b 8635 e611 0bb5
00000220: 0400 0080 779f 36b5 66dd 37b5 a650 29b5
00000230: e325 96b4 8164 5d35 2137 7135 1da0 0fb5

backbone.10.conv.0.1.running_var f4 [144]
6e-45 0.08180081 0.10240541 6e-45 0.06140266 0.08550178 0.08513667 0.07187078
0.08048098 0.119918905 0.040307637 0.10003406 0.08708064 0.082596 0.09797728 0.09695587
6e-45 0.08911522 0.09092907 0.0919554 0.12284862 0.11511989 0.09719959 0.09867709
0.1293885 0.07475913 0.102882035 0.08311434 0.07762873 0.0062076934 0.112941585 0.12108348
0.09654933 0.08244813 0.083965 0.111258455 0.08070686 0.060530614 0.10405989 6e-45
0.06342501 0.09802379 0.11840323 0.12315774 0.06175959 0.059932534 0.092283346 0.1111092
0.048844807 0.12781669 0.06613621 0.08146383 6e-45 0.043530177 6e-45 0.07042554
0.09747349 0.06959668 0.1195824 0.10016428 6e-45 0.23243052 0.031559005 0.08531108
0.13354565 0.06071773 0.09676557 0.03922448 0.12911391 0.07748016 0.052916955 0.13995157
0.064757 6e-45 0.034600567 0.07902362 0.07340608 0.075457975 0.16529404 0.06440941
0.07027644 0.09227606 6e-45 0.12997046 6e-45 0.039151624 0.066793405 0.11221491
0.07783214 0.03198249 0.055784136 6e-45 0.069896355 0.10413242 0.093644306 0.11178648
6e-45 6e-45 0.10502366 0.093157984 0.05699743 0.17580184 0.07658741 0.061086778
0.03135403 6e-45 0.06441408 0.072476126 0.18363726 0.06941009 0.048449263 6e-45
0.09864197 0.11766827 0.11168783 0.07626163 0.15168008 0.09266158 0.045263715 0.017807806
6e-45 0.082269624 0.060281616 0.08516398 0.112144485 0.11388166 0.057702996 0.052224454
0.075941995 0.057640884 6e-45 0.072451934 0.09606474 0.047926936 0.06121337 0.093645856
6e-45 0.09494464 0.055608004 0.064140536 0.08992655 0.09663867 0.07047382 0.07684507
00000000: 0400 0000 2f87 a73d edb9 d13d 0400 0000
00000010: 5b81 7b3d 8f1b af3d 225c ae3d fd30 933d
00000020: 36d3 a43d 0b98 f53d 9f19 253d a8de cc3d
00000030: 5657 b23d 1728 a93d 50a8 c83d cd90 c63d
00000040: 0400 0000 0a82 b63d 0539 ba3d 1d53 bc3d
00000050: 0f98 fb3d fac3 eb3d 9410 c73d 3717 ca3d
00000060: 6b7e 043e 511b 993d d1b3 d23d da37 aa3d
00000070: d0fb 9e3d e869 cb3b eb4d e73d 9efa f73d
00000080: a8bb c53d 91da a83d d8f5 ab3d 79db e33d
00000090: a349 a53d f3ee 773d 5a1d d53d 0400 0000
000000a0: f9e4 813d b2c0 c83d 657d f23d 203a fc3d
000000b0: a0f7 7c3d d17b 753d 0dff bc3d 388d e33d
000000c0: 7e11 483d 61e2 023e 6c72 873d 82d6 a63d
000000d0: 0400 0000 b34c 323d 0400 0000 443b 903d
000000e0: 2ea0 c73d b488 8e3d 9ee7 f43d ee22 cd3d
000000f0: 0400 0000 4402 6e3e 0444 013d 93b7 ae3d
00000100: 31c0 083e 28b3 783d 072d c63d d9a9 203d
00000110: 7036 043e ebad 9e3d 73bf 583d 774f 0f3e
00000120: 519f 843d 0400 0000 53b9 0d3d 23d7 a13d
00000130: ed55 963d b689 9a3d d742 293e 15e9 833d
00000140: 18ed 8f3d 3bfb bc3d 0400 0000 fa16 053e
00000150: 0400 0000 745d 203d fbca 883d eed0 e53d
00000160: 7566 9f3d 1200 033d e87d 643d 0400 0000
00000170: d225 8f3d 6143 d53d 96c8 bf3d 4ff0 e43d
00000180: 0400 0000 0400 0000 a516 d73d 9dc9 be3d
00000190: 2376 693d 6605 343e dcd9 9c3d 2136 7a3d
000001a0: 156d 003d 0400 0000 87eb 833d 5d6e 943d
000001b0: 680b 3c3e e126 8e3d bc72 463d 0400 0000
000001c0: cd04 ca3d 10fc f03d 97bc e43d 0f2f 9c3d
000001d0: 0652 1b3e 5bc5 bd3d 7266 393d ade1 913c
000001e0: 0400 0000 fa7c a83d dbe9 763d 746a ae3d
000001f0: 02ac e53d ca3a e93d fa59 6c3d 4fe9 553d
00000200: 7a87 9b3d d918 6c3d 0400 0000 ae61 943d
00000210: 97bd c43d 094f 443d dfba 7a3d 66c9 bf3d
00000220: 0400 0000 5672 c23d 38c5 633d 1d5c 833d
00000230: 692b b83d 7fea c53d 9454 903d f360 9d3d

backbone.10.conv.0.1.weight f4 [144]
-5.9927e-41 0.1332269 0.09607744 8.995e-42 0.10271723 0.10176548 0.12196971 0.10342425
0.15911639 0.18487997 0.07405405 0.13518475 0.089906536 0.10218027 0.1309872 0.13710238
-1.5089e-41 0.096436754 0.12935853 0.07750528 0.11750459 0.16977228 0.10774288 0.10798623
0.109074816 0.14945793 0.17326555 0.12653795 0.10262584 0.043929666 0.15161246 0.1506485
0.12177412 0.12343344 0.16864878 0.12928174 0.10946993 0.13363846 0.11213187 -6.2536e-41
0.0969896 0.1429801 0.101483345 0.096239254 0.1186552 0.11940722 0.13640963 0.15408729
0.096865036 0.11789011 0.13894631 0.08315321 -1.484e-42 0.09256429 2.3426e-41 0.10399457
0.07262109 0.119845204 0.14499065 0.115078814 6.2864e-41 0.19919823 0.093340404 0.14160423
0.12313133 0.122867145 0.14759496 0.06910784 0.12932637 0.1048393 0.12075735 0.12889837
0.15179525 3.7213e-41 0.08855441 0.109168 0.09852959 0.10138365 0.16172837 0.087134935
0.119720206 0.120894186 2.0546e-41 0.16020633 4.924e-41 0.10314462 0.13506302 0.118030496
0.105413325 0.10708878 0.11163913 -1.6932e-41 0.11771129 0.14565128 0.14219889 0.11135263
5.9924e-41 8.684e-42 0.14333697 0.13340858 0.081541136 0.14867228 0.123967685 0.12364686
0.1018318 -2.1883e-41 0.1271597 0.09507473 0.20202196 0.10526922 0.09363063 -3.993e-41
0.12708175 0.16276243 0.0961926 0.14195843 0.12976237 0.08820433 0.11049779 0.10276508
1.963e-42 0.10956472 0.07389246 0.10564703 0.12622966 0.11800651 0.10753107 0.12127367
0.12571172 0.08874214 2.8837e-41 0.114182636 0.10643685 0.08165677 0.10674386 0.15920238
-2.6976e-41 0.17274506 0.09997646 0.14168952 0.13135797 0.11113338 0.1164804 0.113611385
00000000: 0da7 0080 a26c 083e 40c4 c43d 1319 0000
00000010: 695d d23d 6c6a d03d 41cb f93d 18d0 d33d
00000020: 68ef 223e 2d51 3d3e a6a9 973d df6d 0a3e
00000030: eb20 b83d e443 d13d 8221 063e 9164 0c3e
00000040: 102a 0080 a280 c53d 9076 043e 17bb 9e3d
00000050: 3fa6 f03d c9d8 2d3e 4da8 dc3d e227 dd3d
00000060: 9e62 df3d 800b 193e 866c 313e 2a93 013e
00000070: 7f2d d23d 98ef 333d 4c40 1b3e 9a43 1a3e
00000080: b664 f93d acca fc3d 44b2 2c3e 6f62 043e
00000090: c531 e03d 85d8 083e 65a5 e53d 53ae 0080
000000a0: 7ca2 c63d 6069 123e 80d6 cf3d 1619 c53d
000000b0: 7f01 f33d c68b f43d f7ae 0b3e 0fc9 1d3e
000000c0: 2d61 c63d 5f70 f13d f147 0e3e 3b4c aa3d
000000d0: 2304 0080 5992 bd3d 4d41 0000 1bfb d43d
000000e0: 5eba 943d 6771 f53d 6e78 143e 71ae eb3d
000000f0: 3daf 0000 9ffa 4b3e 4129 bf3d b300 113e
00000100: 472c fc3d c5a1 fb3d 2223 173e 6988 8d3d
00000110: 226e 043e fdb5 d63d a14f f73d effd 033e
00000120: 3770 1b3e bc67 0000 045c b53d 7993 df3d
00000130: e2c9 c93d 3ba2 cf3d 1f9c 253e cd73 b23d
00000140: de2f f53d 5f97 f73d 4639 0000 210d 243e
00000150: 4389 0000 7d3d d33d f64d 0a3e f9b9 f13d
00000160: f1e2 d73d 5d51 db3d 0ea3 e43d 332f 0080
00000170: 9e12 f13d 9c25 153e 969c 113e d90c e43d
00000180: 0ba7 0000 3518 0000 edc6 123e 429c 083e
00000190: 0aff a63d 8c3d 183e c5e2 fd3d 913a fd3d
000001a0: 318d d03d 003d 0080 2736 023e 8ab6 c23d
000001b0: d8de 4e3e 6497 d73d 6ac1 bf3d 4f6f 0080
000001c0: b821 023e 32ab 263e a000 c53d 8d5d 113e
000001d0: 6de0 043e 79a4 b43d aa4c e23d 8076 d23d
000001e0: 7905 0000 7863 e03d ee54 973d 785d d83d
000001f0: 5942 013e 66ad f13d 4039 dc3d 545e f83d
00000200: 93ba 003e 70be b53d 6350 0000 96d8 e93d
00000210: 90fb d93d aa3b a73d 869c da3d f305 233e
00000220: 334b 0080 15e4 303e 75c0 cc3d 0f17 113e
00000230: b482 063e e699 e33d 478d ee3d 16ad e83d

backbone.10.conv.1.0.weight f4 [144, 1, 3, 3]
-1.1219e-41 5.6441e-41 -6.077e-42 2.6787e-41 -2.8132e-41 3.1769e-41 -2.3477e-41 2.723e-42
-4.917e-42 -0.17029609 -0.09603181 -0.15743637 0.064930715 0.12623467 0.11730712 0.010789585
-0.06889256 0.007296314 0.046918176 -0.0133854905 -0.20695737 0.058588456 0.25554368 0.04261058
0.015525521 0.08416682 0.036931563 2.1958e-41 1.6748e-41 -2.115e-41 -5.239e-41 2.5055e-41
-1.2406e-41 5.8747e-41 4.9504e-41 4.3495e-41 0.0008866532 0.10592397 0.06626465 -0.1981695
-0.013040697 0.124633715 -0.096393175 -0.022462022 0.06447152 -0.15541327 0.037085187 0.073841125
-0.17924331 0.108843364 0.11375921 -0.06105187 -0.040523805 0.05479113 0.04916352 0.01566471
-0.028419536 0.059510242 0.012131649 0.08426388 0.029984694 0.21685699 0.06891795 0.114855975
0.023761263 0.079882845 0.052951727 0.17466763 -0.086994894 -0.15166497 0.09934125 0.015615896
-0.042088177 0.019335555 -0.11269204 0.12541988 0.29422095 -0.09164954 -0.045094553 0.018164527
-0.13504817 0.25106043 0.05564009 0.015992722 0.21890405 -0.11332896 -0.016402416 -0.018121894
0.0071777473 0.2076622 -0.045893673 -0.056403484 -0.047271363 -0.07899737 -0.0023189194 -0.061554853
-0.01045657 -0.09814419 -0.03672456 0.045119192 -0.15487237 -0.012587705 0.12963854 -0.09641786
-0.08135736 0.178117 -0.036310703 -0.006084963 -0.017819831 -0.04576693 -0.03820628 0.2429581
-0.16357554 -0.14446494 -0.049644496 -0.05124906 -0.0062479237 0.023503613 -0.15001132 0.0492785
-0.14360991 -0.074256234 -0.15866221 0.0011100835 0.02168983 -0.0735451 -0.06847937 -0.07317264
-0.057648655 -0.08161479 -0.035137687 -0.0390311 -0.14450495 -0.14997914 -0.15091561 -0.12842466
0.036132798 -0.023718787 0.15943687 0.098264284 -0.13720503 0.08589942 0.1192818 -0.094993494
1.6161e-41 5.3709e-41 5.5077e-41 4.0645e-41 2.1448e-41 -1.1821e-41 3.642e-42 2.658e-41
-9.728e-42 0.1442367 0.039078176 0.0055513913 -0.09928251 0.1774285 0.060330067 -0.16712539
-0.10034851 0.08404057 -0.05546365 -0.18367167 -0.09950945 -0.04590784 0.11930551 0.20166515
-0.024918757 -0.07419213 -0.018525675 0.119273454 0.16604103 0.004633527 -0.029284328 -0.19669682
-0.085232355 0.038564928 -0.058904286 -0.00025155995 0.102332026 0.2103867 -0.011765221 0.0990236
0.15760374 0.042627867 -0.046932872 0.0428363 0.07561294 0.067309566 -0.12364654 0.07174728
0.06928943 -0.105601825 0.10119112 0.15405166 0.15481982 0.14774372 0.06428985 0.1477541
0.08867846 0.09550694 0.10338462 0.022750916 0.04082379 0.051397774 -0.018856725 0.09484262
0.094481625 0.018125769 0.0114939585 0.19880718 0.005081637 0.08139807 0.11824496 0.03758253
-0.11355153 -0.08520239 0.069209605 0.23089048 0.063342065 -0.12489235 0.24998984 -0.0071205986
-0.028389823 -0.06276611 -0.036088165 -0.049159203 -0.13895878 -0.07924382 -0.0450986 -0.10717726
0.029404856 -0.11481696 0.068668716 -0.053626947 0.014730326 0.15919401 -0.049608946 0.15519172
0.1849658 0.036334943 0.102917984 0.06438177 0.074748196 -0.035406735 -0.01902558 0.116333045
-0.06535662 -0.15150838 -0.18290588 -0.13393004 -0.02430435 0.03895365 0.0018852779 -0.053430878
00000000: 461f 0080 569d 0000 f110 0080 ac4a 0000
00000010: 6c4e 0080 8f58 0000 7241 0080 9707 0000
00000020: b50d 0080 1962 2ebe 53ac c4bd 0037 21be
00000030: 65fa 843d a943 013e b73e f03d cdc6 303c
00000040: 8b17 8dbd eb15 ef3b 462d 403d d14e 5bbc
00000050: a2ec 53be 73fa 6f3d 9fd6 823e 6e88 2e3d
00000060: c15e 7e3c a75f ac3d 8d45 173d 363d 0000
00000070: b02e 0000 f53a 0080 0b92 0080 d845 0000
00000080: 9522 0080 c3a3 0000 ff89 0000 3f79 0000
00000090: 4a6e 683a abee d83d c3b5 873d f2ec 4abe
000000a0: a6a8 55bc f63f ff3d c969 c5bd 4602 b8bc
000000b0: a509 843d a824 1fbe a3e6 173d 043a 973d
000000c0: 8f8b 37be 45e9 de3d 97fa e83d 8711 7abd
000000d0: 4afc 25bd aa6c 603d b05f 493d 4753 803c
000000e0: 16d0 e8bc 03c1 733d d3c3 463c 8b92 ac3d
000000f0: 76a2 f53c c20f 5e3e db24 8d3d 9c39 eb3d
00000100: fba6 c23c 9e99 a33d e9e3 583d 12dc 323e
00000110: 612a b2bd 104e 1bbe 6d73 cb3d d1d9 7f3c
00000120: a764 2cbd 9965 9e3c 16cb e6bd 126e 003e
00000130: 21a4 963e c1b2 bbbd 11b5 38bd c6cd 943c
00000140: 114a 0abe fe8a 803e dde6 633d 2b03 833c
00000150: 6228 603e 0419 e8bd 5c5e 86bc 5e74 94bc
00000160: 4f33 eb3b 66a5 543e 01fb 3bbd 5707 67bd
00000170: 9e9f 41bd 60c9 a1bd 03f9 17bb f120 7cbd
00000180: 0952 2bbc d2ff c8bd 7e6c 16bd e7ce 383d
00000190: dd96 1ebe a93c 4ebc f7bf 043e ba76 c5bd
000001a0: b09e a6bd 4e64 363e 88ba 14bd 5f64 c7bb
000001b0: e5fa 91bc 1b76 3bbd 307e 1cbd 02ca 783e
000001c0: 5980 27be 9eee 13be 0758 4bbd 89ea 51bd
000001d0: 62bb ccbb a68a c03c 919c 19be 41d8 493d
000001e0: 7a0e 13be a713 98bd 5978 22be 3980 913a
000001f0: dfae b13c d09e 96bd e93e 8cbd 89db 95bd
00000200: ff20 6cbd a825 a7bd 89ec 0fbd 13df 1fbd
00000210: 1bf9 13be 2294 19be 9f89 1abe c181 03be
00000220: fcff 133d e74d c2bc 6b43 233e c93e c93d
00000230: 7a7f 0cbe 09ec af3d 044a f43d f38b c2bd
00000240: 0d2d 0000 b895 0000 8899 0000 4d71 0000
00000250: ca3b 0000 f420 0080 270a 0000 184a 0000
00000260: 1e1b 0080 c9b2 133e 7010 203d 72e8 b53b
00000270: a154 cbbd d1af 353e a91c 773d eb22 2bbe
00000280: 8583 cdbd 761d ac3d da2d 63bd 6d14 3cbe
00000290: 9ccb cbbd dc09 3cbd 7256 f43d 4f81 4e3e
000002a0: 6c22 ccbc 0bf2 97bd 28c3 97bc a445 f43d
000002b0: a906 2a3e d7d4 973b b0e5 efbc e46a 49be
000002c0: 4d8e aebd 42f6 1d3d 9f45 71bd cee3 83b9
000002d0: 7493 d13d 9c6f 573e eac2 40bc e3cc ca3d
000002e0: e062 213e 8f9a 2e3d af3c 40bd 1e75 2f3d
000002f0: f5da 9a3d 99d9 893d 663a fdbd 3df0 923d
00000300: 9ee7 8d3d c545 d8bd 4a3d cf3d b8bf 1d3e
00000310: 1689 1e3e 214a 173e 66aa 833d da4c 173e
00000320: 0d9d b53d 2499 c33d 51bb d33d 2160 ba3c
00000330: d936 273d 7986 523d 6b79 9abc d93c c23d
00000340: 957f c13d 7e7c 943c 2851 3c3c 1c94 4b3e
00000350: dc83 a63b 08b4 a63d 6a2a f23d 24f0 193d
00000360: b48d e8bd 977e aebd c4bd 8d3d 8e6e 6c3e
00000370: 7cb9 813d 8fc7 ffbd 56fd 7f3e e953 e9bb
00000380: c691 e8bc 858b 80bd 2fd1 13bd 295b 49bd
00000390: 364b 0ebe 954a a2bd 4fb9 38bd c07f dbbd
000003a0: 74e2 f03c 2825 ebbd 2fa2 8c3d eea7 5bbd
000003b0: 7757 713c c103 233e c032 4bbd 94ea 1e3e
000003c0: ad67 3d3e f3d3 143d aac6 d23d 97da 833d
000003d0: 9515 993d a706 11bd 88db 9bbc 0540 ee3d
000003e0: b1d9 85bd 0325 1bbe ae4b 3bbe f524 09be
000003f0: eb19 c7bc dd8d 1f3d 6e1b f73a 56da 5abd

backbone.10.conv.1.1.bias f4 [144]
-5.2976e-41 -0.13662447 -0.16164085 2.156326e-39 -0.05979711 0.07506976 -0.045830153 0.0008684137
0.075194 -0.061606254 -0.101188496 -0.07945348 -0.025846856 0.023226574 -0.17678675 -0.08758084
-1.6897e-41 -0.17713615 -0.084966116 -0.0077623157 -0.08181626 -0.11975553 -0.10683328 -0.18914713
0.23066926 -0.032319136 -0.15621981 0.05159379 -0.036222026 -0.11167286 0.06875645 -0.14597012
-0.09105826 -0.16099772 -0.029845571 0.12553662 0.058724567 0.14365967 -0.15262815 -3.3962e-41
0.012678467 0.1555614 -0.092277564 -0.041276913 -0.07591682 -0.061161853 0.21940087 0.13072686
0.0022230512 -0.0026405314 -0.04772246 -0.26389888 -3.4929e-41 -0.11910294 -5.5961e-41 -0.05794526
-0.05028002 -0.048981886 -0.063390724 0.07498839 -6.77e-43 0.18089259 0.064804405 -0.09067357
-0.23794779 -0.12548348 -0.19893475 -0.05363749 0.07492812 -0.025273254 0.044983875 -0.013717189
0.03630687 -4.4313e-41 0.10254442 0.09003115 -0.07917499 -0.055516344 0.22923593 -0.11422658
0.29992008 -0.08493066 -2.3554e-41 0.2111627 -7.341e-42 -0.08977002 0.09181905 -0.20614131
0.007461277 -0.0130213015 -0.08683535 -5.9236e-41 -0.045754496 0.27084965 -0.027556036 0.052162614
-5.0103e-41 -5.0272e-41 -0.03889152 0.0010796662 0.016373323 0.029167589 -0.14083737 -0.0958425
0.06208212 -5.3813e-41 -0.06407066 -0.08173228 0.15489025 -0.011316411 0.005383438 -2.581e-42
0.22774875 -0.084413595 -0.10927781 -0.010148126 -0.08525242 -0.10900546 -0.11949423 -0.097357824
-4.9295e-41 0.05974043 -0.16960308 -0.24165568 0.046411954 -0.100153945 -0.054689206 0.0504597
-0.033929475 -0.02804318 -1.6946e-41 0.10221144 -0.1069311 -0.120684884 0.20037377 0.13853359
1.49419e-39 -0.24550192 -0.11843922 -0.0951913 0.023638535 0.16485503 -0.09022139 -0.17306232
00000000: ad93 0080 49e7 0bbe 2e85 25be f67a 1700
00000010: d0ed 74bd 2dbe 993d 66b8 3bbd 42a6 633a
00000020: 50ff 993d d756 7cbd ea3b cfbd 82b8 a2bd
00000030: c9bc d3bc a845 be3c 9607 35be 955d b3bd
00000040: 1a2f 0080 2e63 35be b702 aebd 065b febb
00000050: 498f a7bd 6342 f5bd 68cb dabd c9af 41be
00000060: 9034 6c3e 1261 04bd 16f8 1fbe 0354 533d
00000070: 8c5d 14bd beb4 e4bd 2fd0 8c3d 3179 15be
00000080: c17c babd 96dc 24be b37e f4bc ac8c 003e
00000090: 2c89 703d 851b 133e 8e4a 1cbe ac5e 0080
000000a0: 58b9 4f3c 7d4b 1f3e 05fc bcbd fb11 29bd
000000b0: 477a 9bbd da84 7abd 9faa 603e 43dd 053e
000000c0: 9cb0 113b c40c 2dbb a078 43bd c11d 87be
000000d0: 5e61 0080 3eec f3bd ff9b 0080 0258 6dbd
000000e0: 6cf2 4dbd 3ba1 48bd ffd2 81bd 8393 993d
000000f0: e301 0080 e83b 393e 2cb8 843d 11b3 b9bd
00000100: 96a8 73be be7e 00be 8db5 4bbe fcb2 5bbd
00000110: ea73 993d db09 cfbc 0341 383d 10be 60bc
00000120: 83b6 143d 877b 0080 cf02 d23d 4062 b83d
00000130: 7f26 a2bd 1b65 63bd d3bc 6a3e a0ef e9bd
00000140: 208f 993e 20f0 adbd a941 0080 093b 583e
00000150: 7714 0080 58d9 b7bd a00b bc3d b516 53be
00000160: ba7d f43b 4c57 55bc bbd6 b1bd 20a5 0080
00000170: 1169 3bbd ceac 8a3e 32bd e1bc 77a8 553d
00000180: ab8b 0080 238c 0080 b74c 1fbd 9683 8d3a
00000190: 5921 863c def0 ee3c ac37 10be 1349 c4bd
000001a0: d249 7e3d 0296 0080 7a37 83bd 4163 a7bd
000001b0: 8d9b 1e3e 7868 39bc 8d67 b03b 3207 0080
000001c0: f836 693e 09e1 acbd 0bcd dfbd 5344 26bc
000001d0: d298 aebd 413e dfbd 64b9 f4bd 8a63 c7bd
000001e0: 6a89 0080 62b2 743d 6eac 2dbe 9674 77be
000001f0: 761a 3e3d 831d cdbd ca01 60bd d5ae 4e3d
00000200: a2f9 0abd d0ba e5bc 3d2f 0080 3b54 d13d
00000210: b1fe dabd a329 f7bd c82e 4d3e c0db 0d3e
00000220: 3245 1000 db64 7bbe 4390 f2bd a8f3 c2bd
00000230: 9aa5 c13c c2cf 283e fec5 b8bd 4037 31be

backbone.10.conv.1.1.running_mean f4 [144]
3e-45 -0.008457713 0.045382816 6e-45 0.00051628915 -0.0026229625 0.020816356 0.028423876
0.0046970453 0.026501454 -0.039501857 -0.0017712935 -0.034742273 -0.05577944 -0.13889365 0.0018696841
-6e-45 0.011093027 -0.0028626267 -0.0030616694 0.029549632 0.019889338 0.00971011 0.014514569
0.0009880345 -0.050930016 0.029262943 -0.030104298 0.0141122565 -0.02135215 -0.022233224 0.0055816215
0.015267682 0.018399153 -0.065417044 -0.06590634 0.010993788 -0.011738176 0.0020296867 6e-45
-0.06308704 0.01037439 0.02725572 0.041382372 -0.0055099316 -0.00865696 -0.0063752932 0.011538912
0.0029897792 0.017076425 0.00084900204 0.0043691057 -6e-45 0.0024221484 6e-45 -0.031504937
0.00012660942 -0.03739297 0.0048527457 -0.011387569 6e-45 -0.033212144 0.001067836 0.0011876824
0.028509608 0.0066261273 -0.0042306934 -0.018635865 0.0027736442 0.0054413727 -0.015443126 0.04022042
0.007575851 -6e-45 -0.0034483317 -0.0035637014 0.006203972 0.007125633 0.0074551487 0.0046435166
-0.002063406 0.022071978 6e-45 0.0054869386 6e-45 -0.006993911 -0.0014474464 0.009972232
0.006158291 0.004555504 0.0063166623 -6e-45 0.019676954 -0.023237359 0.0076310714 0.029345334
6e-45 6e-45 0.007450853 -0.014062115 -0.014021335 0.005265998 0.0016330024 -0.057935007
-0.007975787 6e-45 -0.056996096 -0.031359974 0.012184002 -0.00066199875 -0.004307004 -6e-45
-0.01448937 -0.015569101 0.0009087 0.005411739 -0.02973332 -0.037572183 0.0034634967 0.012918104
6e-45 -0.0018346024 0.00013060716 0.013022162 -0.030001255 -0.0291766 0.01280851 -0.0031488093
-0.004621129 -0.027526371 6e-45 -0.012316828 0.0012751987 0.00027082264 -0.0065444973 -0.033983354
6e-45 0.011587921 0.0015391641 -0.0064937123 -0.07710727 0.0019557409 0.027567098 -0.10485381
00000000: 0200 0000 3892 0abc 55e3 393d 0400 0000
00000010: 9457 073a 02e6 2bbb 1087 aa3c 30d9 e83c
00000020: ace9 993b 9419 d93c b3cc 21bd bf2a e8ba
00000030: ea4d 0ebd fb78 64bd 233a 0ebe 3010 f53a
00000040: 0400 0080 87bf 353c e89a 3bbb 4aa6 48bb
00000050: 1212 f23c f7ee a23c 2717 1f3c 84ce 6d3c
00000060: f080 813a fe9b 50bd d7b8 ef3c 4a9d f6bc
00000070: 1837 673c b4ea aebc 7322 b6bc 09e6 b63b
00000080: 4d25 7a3c d2b9 963c 5ff9 85bd e7f9 86bd
00000090: 4a1f 343c 7b51 40bc 7e04 053b 0400 0000
000000a0: c733 81bd 58f9 293c 6347 df3c 9080 293d
000000b0: a88c b4bb ecd5 0dbc d6e7 d0bb b40d 3d3c
000000c0: 2cf0 433b dce3 8b3c 908f 5e3a b72a 8f3b
000000d0: 0400 0080 e8bc 1e3b 0400 0000 520b 01bd
000000e0: 75c2 0439 5f29 19bd c803 9f3b ed92 3abc
000000f0: 0400 0000 7509 08bd a1f6 8b3a 02ac 9b3a
00000100: fb8c e93c fc1f d93b a1a1 8abb 3eaa 98bc
00000110: 07c6 353b 8b4d b23b 2a05 7dbc 2bbe 243d
00000120: d83e f83b 0400 0080 68fd 61bb fd8c 69bb
00000130: b04a cb3b 247e e93b 524a f43b a428 983b
00000140: 353a 07bb 4bd0 b43c 0400 0000 c7cb b33b
00000150: 0400 0000 2e2d e5bb 3eb8 bdba 9362 233c
00000160: 7dcb c93b 5646 953b 01fc ce3b 0400 0080
00000170: 9031 a13c 465c bebc 110e fa3b a065 f03c
00000180: 0400 0000 0400 0000 4926 f43b c964 66bc
00000190: beb9 65bc 658e ac3b 780a d63a 424d 6dbd
000001a0: e0ac 02bc 0400 0000 bd74 69bd 5173 00bd
000001b0: 699f 473c fc89 2dba c521 8dbb 0400 0080
000001c0: d364 6dbc 8b15 7fbc d335 6e3a f554 b13b
000001d0: 4b93 f3bc 4ae5 19bd d5fb 623b 75a6 533c
000001e0: 0400 0000 0b77 f0ba 98f3 0839 e85a 553c
000001f0: 31c5 f5bc c403 efbc c9da 513c 415c 4ebb
00000200: d76c 97bb fc7e e1bc 0400 0000 85cc 49bc
00000210: 9124 a73a 33fd 8d39 3973 d6bb 2132 0bbd
00000220: 0400 0000 43db 3d3c c7bd c93a 35c9 d4bb
00000230: 6bea 9dbd e32b 003b 65d4 e13c 98bd d6bd
